ANN_MLP/models/emotion_model_best.pt (torch, 608629 bytes, 10 tensors)

net.0.weight f4 [256, 320]
0.041108903 -0.02659377 0.04445903 0.036644842 -0.019245474 0.0069553475 0.043220893 -0.0069406265
0.014223802 0.022790585 -0.035282433 -0.08010426 -0.02588739 -0.08913638 0.026511226 -0.07058885
0.001690943 -0.030682331 -0.067702934 -0.06328338 -0.0053207623 -0.035670042 -0.067628935 0.0004596921
-0.036464725 0.050914567 0.07249136 0.0026129861 0.0060218438 0.022271596 -0.0025661688 -0.008285395
-0.015060978 -0.014653186 0.032453816 0.051837217 -0.0071253357 -0.027211154 -0.051774897 0.010965664
-0.04517379 0.020219423 0.020341698 -0.018860772 0.057971995 -0.015749075 0.020929532 0.013279884
0.083007045 0.1312648 0.020290967 -0.004009148 -0.008460286 -0.0036386298 -0.03391564 0.04550833
-0.06641873 0.035887938 -0.016231077 -0.029962692 0.029081147 -0.0008701178 0.05886505 -0.0073569547
0.05623914 0.065243125 0.00924304 -0.011543921 -0.03264563 0.028375203 -0.015351695 -0.025259295
-0.012563166 0.013411674 0.06852042 0.017113147 -0.016290879 -0.045281556 0.04154576 0.026285844
0.043467578 -0.004735406 -0.0077932216 0.028654883 0.0040842956 -0.009025122 0.017375534 0.029484978
0.011617148 -0.017068053 -0.019092487 0.04188437 0.040539667 0.0040906575 -0.0034986439 0.052164197
0.047207955 0.030130828 0.00030970376 0.037845355 -0.0048840507 0.020100359 -0.01856742 0.006247596
0.009468498 0.00087299146 -0.013959587 3.973443e-06 -0.004995571 0.0005930114 0.0015754426 -0.0023859353
0.008288158 -0.0015207883 -0.0071384786 -0.008786504 -0.010476108 0.0033036894 -0.022625823 0.0033068813
0.0051231147 -0.018047437 -0.002130403 -0.014092227 0.019722957 0.011625748 0.010540656 -0.012618599
-0.0048904945 -0.007984657 -0.0025460175 -0.007198099 -0.012004612 -0.007072885 -0.011557058 -0.009117381
-0.014824738 -0.00432981 -0.0023911898 -0.0036093127 -0.004519045 -0.0027456973 -8.978028e-05 -0.005727804
-0.0018453861 1.0188181e-09 1.194045e-09 -0.0007105298 -8.3307736e-05 -5.3631977e-10 -8.7498764e-10 -9.795639e-11
-1.4499488e-09 -6.236926e-11 -0.0008532773 -6.591105e-10 -2.8074837e-07 -9.3168645e-05 -6.9686207e-06 -9.667659e-05
-1.0383858e-09 -8.333263e-05 -1.9706174e-09 -1.8979498e-09 -1.3156397e-10 -0.0013227754 -3.001199e-08 1.3535432e-09
-6.565939e-11 -4.899907e-05 -1.2773266e-09 -5.3282514e-05 -3.8626465e-07 7.1332656e-10 -2.8688612e-07 -9.4748604e-05
-7.2495345e-06 3.1251635e-10 6.4956807e-10 -6.586368e-05 -2.271018e-10 -8.1210776e-05 -1.3420914e-08 2.703026e-11
-5.967634e-06 1.3717564e-09 -0.00027149642 9.483184e-11 -0.0013127069 -1.8245401e-09 -6.647116e-05 -0.0018281892
-8.2615603e-10 -7.693434e-06 -5.1696763e-05 1.231118e-09 1.7906375e-09 -0.0010909837 1.3836676e-09 -4.5383305e-07
-1.8136539e-09 -1.861778e-09 -4.904842e-10 -6.579633e-05 1.3499303e-09 3.1368577e-10 4.303459e-09 -1.6122521e-09
-3.9141898e-05 -9.2956485e-05 -6.422299e-06 -0.001997398 -1.1511082e-07 -0.0002565676 -1.8412617e-09 -0.00013523146
1.23208e-09 4.3019818e-10 -2.782072e-05 -3.423203e-07 -1.7045293e-10 -0.0004599135 -4.2336015e-10 -1.700597e-08
-2.0300097e-09 -4.5909876e-09 2.2309174e-11 2.0214541e-10 -5.059012e-06 4.3515915e-09 -6.258368e-06 1.3671773e-09
3.125179e-09 -5.7200966e-10 -0.0024669673 1.576347e-10 -0.00046031098 1.3475883e-09 -4.7323618e-07 -3.245464e-07
1.1911803e-09 -2.8871406e-07 1.2835156e-09 -8.024329e-06 -3.9843875e-09 -8.260663e-05 -4.1485568e-10 -0.00045989593
-1.3550438e-07 -1.1216013e-11 1.6927513e-09 -2.9752823e-07 -8.438298e-05 -0.00011439009 1.3850716e-09 -0.0026055858
00000000: cf61 283d 2edb d9bc ac1a 363d e718 163d
00000010: afa8 9dbc afe9 e33b 6408 313d 326e e3bb
00000020: f30a 693c 52b3 ba3c 5084 10bd b40d a4bd
00000030: cb11 d4bc 228d b6bd 122e d93c e390 90bd
00000040: a2a2 dd3a 8359 fbbc d6a7 8abd b79a 81bd
00000050: ca59 aebb c01a 12bd 0a81 8abd d402 f139
00000060: 095c 15bd cb8b 503d 5a76 943d a23e 2b3b
00000070: e352 c53b ec72 b63c 2b2d 28bb 77bf 07bc
00000080: 52c2 76bc eb13 70bc 4bee 043d 4353 543d
00000090: a67b e9bb ede9 debc ea11 54bd 54a9 333c
000000a0: 2708 39bd 34a3 a53c a2a3 a63c e881 9abc
000000b0: 0b74 6d3d 3404 81bc 6974 ab3c df93 593c
000000c0: 99ff a93d 486a 063e 3e39 a63c 2c5f 83bb
000000d0: 039d 0abc 1476 6ebb 20eb 0abd f166 3a3d
000000e0: 8b06 88bd 3bff 123d 09f7 84bc 5274 f5bc
000000f0: 963b ee3c 9e18 64ba 7b1c 713d 9c12 f1bb
00000100: 035b 663d 309e 853d 1f70 173c b722 3dbc
00000110: 6db7 05bd 1d73 e83c ad85 7bbc 95ec cebc
00000120: bdd5 4dbc a3bc 5b3c 6f54 8c3d df30 8c3c
00000130: 7374 85bc 2779 39bd e32b 2a3d 6955 d73c
00000140: 0f0b 323d 772b 9bbb 485e ffbb a5bd ea3c
00000150: 8ed5 853b 1bde 13bc 2357 8e3c 7b8a f13c
00000160: da55 3e3c 4dd2 8bbc d967 9cbc f28e 2b3d
00000170: ec0c 263d ec0a 863b 8149 65bb 20aa 553d
00000180: 215d 413d edd4 f63c bc5f a239 bb03 1b3d
00000190: 630a a0bb 82a9 a43c b41a 98bc a2b8 cc3b
000001a0: c221 1b3c 77d9 643a c0b6 64bc 9e53 8536
000001b0: e3b1 a3bb 5274 1b3a 157f ce3a 5a5d 1cbb
000001c0: 0ecb 073c 3055 c7ba e6e9 e9bb 45f5 0fbc
000001d0: fba3 2bbc b682 583b ca59 b9bc 43b8 583b
000001e0: cddf a73b 38d8 93bc 3b9e 0bbb 16e3 66bc
000001f0: 0a92 a13c ec79 3e3c b7b2 2c3c 3ebe 4ebc
00000200: 7140 a0bb 14d2 02bc 16db 26bb 08de ebbb
00000210: feae 44bc a9c3 e7bb d159 3dbc 1161 15bc
00000220: 75e3 72bc 14e1 8dbb 82b5 1cbb 388a 6cbb
00000230: 7f14 94bb 28f1 33bb 6c48 bcb8 4db0 bbbb
00000240: e2e0 f1ba 7a06 8c30 b91b a430 d942 3aba
00000250: 80b5 aeb8 266c 13b0 c883 70b0 8c68 d7ae
00000260: 8a47 c7b0 c626 89ae 78ae 5fba c72c 35b0
00000270: c3b9 96b4 8963 c3b8 ffd3 e9b6 d9be cab8
00000280: f4b6 8eb0 ddc2 aeb8 786b 07b1 166d 02b1
00000290: f7a7 10af fa60 adba 88e6 00b3 9107 ba30
000002a0: f362 90ae 5a84 4db8 ef8d afb0 aa7b 5fb8
000002b0: cf5f cfb4 e513 4430 5405 9ab4 c5b3 c6b8
000002c0: 0741 f3b6 c4ce ab2f 4a8d 3230 4b20 8ab8
000002d0: 79b3 79af b44f aab8 ce91 66b2 bcc2 ed2d
000002e0: 963d c8b6 6388 bc30 a257 8eb9 9489 d02e
000002f0: 220f acba 4cc3 fab0 6f66 8bb8 da9f efba
00000300: 9017 63b0 0c13 01b7 fad4 58b8 1d34 a930
00000310: 751a f630 57ff 8eba 7a2b be30 57a6 f3b4
00000320: 4644 f9b0 7de1 ffb0 c2d2 06b0 23fc 89b8
00000330: 7388 b930 5973 ac2f a0dd 9331 1496 ddb0
00000340: 4b2c 24b8 a2f1 c2b8 217f d7b6 c7e6 02bb
00000350: d832 f7b3 ec83 86b9 a30f fdb0 ebcc 0db9
00000360: f655 a930 0381 ec2f 8b60 e9b7 25c8 b7b4
00000370: 3c6a 3baf 8c20 f1b9 a5be e8af 8614 92b2
00000380: 4f80 0bb1 c1be 9db1 cb3b c42d e042 5e2f
00000390: 95c0 a9b6 0185 9531 f9fe d1b6 46e7 bb30
000003a0: bbc2 5631 9a3b 1db0 d8ac 21bb 3952 2d2f
000003b0: e555 f1b9 0c36 b930 1611 feb4 513d aeb4
000003c0: eeb6 a330 8f00 9bb4 b167 b030 3ba0 06b7
000003d0: 0be7 88b1 193d adb8 bf11 e4af 301e f1b9
000003e0: 297f 11b4 6f50 45ad 64a6 e830 f8bb 9fb4
000003f0: c4f6 b0b8 b6e4 efb8 e05c be30 7ac2 2abb

net.0.bias f4 [256]
0.028577713 -0.005844153 -0.0180945 -0.007983883 -0.0003145337 0.103450984 -0.0018890034 -0.0012324409
-0.0026940387 0.05008698 -0.019901792 0.006778918 -0.010038553 -0.023381243 -0.012201786 -0.0052766167
-0.015146439 -0.015427311 -0.010708277 0.010248548 0.0037177952 -0.000602869 0.033508733 0.021845499
0.0011776676 0.009537522 0.0034320056 0.018864896 -0.064129315 -0.003176974 -0.046010442 -0.039527513
-0.016224617 -0.00078170997 0.014822128 -0.017906932 -0.039565306 -0.012772826 0.0024902981 0.011296052
-0.049991213 0.025568826 -0.00033611176 0.0030080008 -0.0034924257 0.009676425 -0.011482571 0.10565995
-0.042228863 -0.024824454 -0.0019345495 -0.005397868 -0.020476613 -0.02706998 -0.08364359 -0.07507561
-0.007061396 0.067886084 0.002092707 0.041247368 0.0112039875 -0.004692755 0.07525932 -0.0024758228
-0.0024618732 -0.015005596 0.004146374 0.000383953 0.04840472 0.00022851232 0.005214019 -0.0009106864
-0.034519136 0.00875908 -0.032941993 -0.02798798 -0.002017121 -0.088264965 -0.0013940779 0.0040293317
-0.027336739 0.018856656 -0.012223804 -0.012846427 -0.047953423 -0.0033374645 0.005864327 -0.0059970687
-0.0013467874 0.0021999453 -0.005787009 0.03286826 0.008317872 -0.0013697108 -0.003629931 0.023828233
-0.007953399 0.016895803 -0.043458644 0.02637311 0.031033238 -0.0116882995 -0.019380543 0.015907839
-0.001991798 0.013469578 0.00035107794 0.0003321683 -0.03441772 -0.04428807 0.027157206 -0.016723009
-0.0024922013 0.00081837154 -0.04806226 0.014314039 -0.009814495 0.037763 -0.07482275 -0.0005344597
-0.031179205 0.003390038 0.055400345 0.0074553434 0.08126368 0.0025853887 -0.07883862 0.057276666
0.012926834 -0.0024309775 -0.0377122 -0.0039998586 0.020735962 -0.006002066 0.0018312555 -0.014105585
0.0066645443 -0.028755637 0.04762839 -0.010281126 -0.02209842 -0.0017230513 -0.03066144 0.023012081
-0.033954605 0.010238529 -0.0017694269 -0.0015150434 0.009315253 -0.0021040966 -0.0014809883 -0.0027313537
-0.006027749 0.00038801564 0.039742645 -0.008972091 -0.009006796 0.0022449614 0.010097295 0.0031803034
0.019976445 -0.04213933 0.01830231 0.0018854502 -0.01995995 -0.044378538 -0.040132497 -0.00151992
-0.04424298 0.038033836 0.01685673 -0.037398964 -0.00060428004 0.0014220902 0.058419738 -0.020613365
-0.0018961309 -0.00015806025 0.02159011 -0.008996689 0.007393266 0.026745705 -0.026165757 -0.045530777
-0.022521192 0.0030772272 0.0015526869 -0.0028091993 0.045993406 -0.047412083 0.0051315003 -0.07113454
-0.04721127 -0.0011948115 -0.0243175 -0.010742506 -0.04596088 -0.002927767 -0.0046264166 0.0014881468
-0.12699889 0.016931053 0.062713884 -0.0006106519 9.227346e-05 -0.015658446 0.006957815 0.0023674574
-0.07776738 0.0010971329 -0.0017839851 0.0053597307 -0.0038265286 -0.08586648 -0.04678925 -0.010977713
-0.05861173 0.0038117578 0.00089042523 0.013806925 -0.0005180747 0.11222721 -0.002491934 0.010821474
-0.060486827 -0.0027861765 -0.011659442 0.039033227 0.009830611 0.047954403 -0.0017467106 0.009281682
0.06271923 -0.022433234 0.0012861372 -0.011667749 0.07518468 0.00813738 -0.08300722 -0.000509565
-0.00095032307 0.008532159 -0.021394355 0.010510908 0.078984156 -0.0021709236 -0.015106212 -0.0010265502
-0.00092342426 -0.0010753938 -0.00062368315 0.054259162 -0.12229119 -5.4569326e-05 -0.0035477872 -0.0012255545
00000000: cf1b ea3c 4f80 bfbb eb3a 94bc d5ce 02bc
00000010: 00e8 a4b9 1cde d33d 7098 f7ba db89 a1ba
00000020: 788e 30bb 0128 4d3d 1509 a3bc b021 de3b
00000030: be78 24bc 058a bfbc 00ea 47bc 78e7 acbb
00000040: c528 78bc d5c2 7cbc c571 2fbc 87e9 273c
00000050: 41a6 733b db09 1eba 7440 093d 55f5 b23c
00000060: f85b 9a3a 4443 1c3c 80eb 603b 8e8a 9a3c
00000070: 3b56 83bd c734 50bb 7275 3cbd 9ae7 21bd
00000080: 7de9 84bc abeb 4cba 83d8 723c 8fb1 92bc
00000090: 3b0f 22bd 1d45 51bc 4534 233b 1313 393c
000000a0: 96c3 4cbd b775 d13c 2838 b0b9 e121 453b
000000b0: 2ee1 64bb de89 1e3c 6521 3cbc 3e64 d83d
000000c0: 2cf8 2cbd a75c cbbc b690 fdba 99e0 b0bb
000000d0: 92be a7bc ddc1 ddbc 554d abbd 3ec1 99bd
000000e0: 4863 e7bb dc07 8b3d cc25 093b 00f3 283d
000000f0: ee90 373c afc5 99bb 8f21 9a3d 6a41 22bb
00000100: 6157 21bb 08da 75bc 4ede 873b 4d4d c939
00000110: 0744 463d cf9c 6f39 5dda aa3b 21bb 6eba
00000120: f063 0dbd 3f82 0f3c 2fee 06bd 0c47 e5bc
00000130: ad31 04bb 43c4 b4bd 7eb9 b6ba 7c08 843b
00000140: 4cf1 dfbc 4679 9a3c 5a46 48bc d279 52bc
00000150: cf6a 44bd 5db9 5abb 8a29 c03b 0f83 c4bb
00000160: b086 b0ba f52c 103b f3a0 bdbb dea0 063d
00000170: af47 083c de87 b3ba 23e4 6dbb 6d33 c33c
00000180: f94e 02bc 1169 8a3c b101 32bd 6c0c d83c
00000190: 6b39 fe3c 4880 3fbc f2c3 9ebc 2851 823c
000001a0: d388 02bb 81af 5c3c e210 b839 e026 ae39
000001b0: 98f9 0cbd 6867 35bd ca78 de3c b1fe 88bc
000001c0: 3354 23bb fc87 563a efdc 44bd 6e85 6a3c
000001d0: facc 20bc 60ad 1a3d ac3c 99bd fc1a 0cba
000001e0: 886b ffbc 662b 5e3b 79eb 623d f44b f43b
000001f0: 926d a63d a06f 293b 2476 a1bd f09a 6a3d
00000200: 12cb 533c 0951 1fbb 1c78 1abd 3f11 83bb
00000210: 77de a93c fbac c4bb bd06 f03a 1d1b 67bc
00000220: 4062 da3b f190 ebbc fd15 433d 2b72 28bc
00000230: bf07 b5bc 02d8 e1ba b32d fbbc d583 bc3c
00000240: fc13 0bbd 81bf 273c 1dec e7ba 6c94 c6ba
00000250: 019f 183c e2e4 09bb b91d c2ba 8300 33bb
00000260: 6c84 c5bb 946e cb39 2fc9 223d adff 12bc
00000270: 3e91 13bc 3420 133b 206f 253c a36c 503b
00000280: a4a5 a33c 4a9a 2cbd baee 953c 3621 f73a
00000290: 0d83 a3bc 45c6 35bd f961 24bd 0d38 c7ba
000002a0: 2138 35bd 5ec9 1b3d 2017 8a3c a82f 19bd
000002b0: 8c68 1eba 6e65 ba3a 8949 6f3d 5cdd a8bc
000002c0: 9887 f8ba fabc 25b9 bedd b03c d966 13bc
000002d0: 3643 f23b cf19 db3c 9259 d6bc 7b7e 3abd
000002e0: 5d7e b8bc 4eab 493b 8783 cb3a 8b1a 38bb
000002f0: 9563 3c3d 2c33 42bd 2526 a83b fcae 91bd
00000300: 9b60 41bd 399b 9cba 7e35 c7bc 5601 30bc
00000310: 7a41 3cbd c8df 3fbb 3299 97bb ec0d c33a
00000320: ff0b 02be feb2 8a3c 2370 803d 2814 20ba
00000330: f082 c138 2446 80bc 62fe e33b 5827 1b3b
00000340: 8144 9fbd accd 8f3a 9bd4 e9ba aea0 af3b
00000350: 7fc6 7abb c4da afbd 16a6 3fbd dedb 33bc
00000360: da12 70bd afce 793b 6d6b 693a 7136 623c
00000370: 68cf 07ba 61d7 e53d b74f 23bb 8d4c 313c
00000380: 09c1 77bd 4998 36bb 3f07 3fbc 4ee1 1f3d
00000390: 9210 213c d66b 443d e2f1 e4ba 3212 183c
000003a0: f172 803d e7c5 b7bc 9a93 a83a 162a 3fbc
000003b0: 6dfa 993d a552 053c b0ff a9bd 5494 05ba
000003c0: 1a1f 79ba 78ca 0b3c 3743 afbc f235 2c3c
000003d0: 72c2 a13d 0e46 0ebb 0c80 77bc 4f8d 86ba
000003e0: f411 72ba 3af4 8cba ab7e 23ba db3e 5e3d
000003f0: ce73 fabd 5ee1 64b8 fe81 68bb c9a2 a0ba

net.2.weight f4 [256]
0.9184912 0.92857665 0.90560716 0.8940411 0.864572 0.9370394 0.8747845 0.88088155
0.91309816 0.92732424 0.91086555 0.94854736 0.88332903 0.8906511 0.8833383 0.9168434
0.90407264 0.89875567 0.91774535 0.9376974 0.8480188 0.8821003 0.9270875 0.899552
0.92551726 0.90188646 0.9100215 0.9290214 0.9258902 0.8812391 0.91123646 0.923913
0.90778327 0.8926876 0.8696095 0.8997595 0.8606786 0.8989391 0.8593053 0.92705935
0.92363775 0.93458647 0.84573525 0.962119 0.8702557 0.89174205 0.91626537 0.9946612
0.9134959 0.91612273 0.9018625 0.9101125 0.92202055 0.914721 0.92979354 0.91171664
0.910175 0.9423579 0.9073092 0.85665244 0.91906714 0.9324846 0.9312896 0.8856608
0.84530264 0.93192995 0.8934123 0.8549051 0.91234255 0.85647297 0.89382064 0.9127236
0.9343525 0.8818762 0.87801045 0.9212468 0.91273427 0.9146032 0.8895947 0.8534852
0.9115416 0.91305006 0.92567647 0.8977376 0.90183383 0.89573944 0.88623804 0.9463802
0.8964193 0.9147473 0.8725419 0.9083344 0.87739635 0.8599374 0.89659053 0.87165695
0.8930997 0.93626857 0.91460955 0.89496213 0.8532787 0.8828294 0.9288099 0.8985608
0.8956031 0.8504321 0.8351879 0.8825766 0.8810504 0.9247831 0.8904396 0.91592026
0.885527 0.8903263 0.9183738 0.91726935 0.8795487 0.9585022 0.92452866 0.8876761
0.908902 0.9221064 0.92470926 0.91801333 0.9185691 0.91047144 0.9129807 0.9567128
0.90567255 0.8875867 0.9084038 0.9116752 0.87473315 0.86407596 0.86502296 0.868887
0.8960505 0.8834476 0.9222244 0.8896665 0.9053849 0.9398326 0.8908987 0.82038367
0.87598693 0.8717611 0.8818623 0.9369982 0.89405954 0.85926765 0.8841787 0.8974799
0.9156606 0.883716 0.90440464 0.89870185 0.9109752 0.9319721 0.86276996 0.86433196
0.9076759 0.9028293 0.9021712 0.8857554 0.8860683 0.9049717 0.89115965 0.8967839
0.8698431 0.89994717 0.8768679 0.8944747 0.86615556 0.8993614 0.92151433 0.86441237
0.9262537 0.91472024 0.8881616 0.91097444 0.8690726 0.89717877 0.8881609 0.9103607
0.91221696 0.86891174 0.84522635 0.90747386 0.9225869 0.8890023 0.8516923 0.8992119
0.908663 0.86310726 0.8909658 0.9170526 0.93126005 0.8628997 0.91250426 0.87994534
0.9371441 0.92795926 0.9482986 0.9141175 0.89931 0.907205 0.9233264 0.93819946
0.8950063 0.84333515 0.8662955 0.9407777 0.88926953 0.9256627 0.9021007 0.92352474
0.9238603 0.9280926 0.8213255 0.8570424 0.8958588 0.9150331 0.87277293 0.87912834
0.9219425 0.86640614 0.9042745 0.90302426 0.87975466 0.9096879 0.86273885 0.89602375
0.93028295 0.86568916 0.8919263 0.8880665 0.9883375 0.8428326 0.89775383 0.88688356
0.89529324 0.8498388 0.91581726 0.88567615 0.9343618 0.9312748 0.90459836 0.8984521
0.85372275 0.8762504 0.882332 0.96149284 0.9278699 0.94721156 0.91697663 0.91607887
00000000: 3d22 6b3f 33b7 6d3f dfd5 673f e1df 643f
00000010: 9754 5d3f d0e1 6f3f e1f1 5f3f 7481 613f
00000020: cdc0 693f 1f65 6d3f 7c2e 693f 00d4 723f
00000030: da21 623f b601 643f 7522 623f 40b6 6a3f
00000040: 4e71 673f da14 663f 5cf1 6a3f f00c 703f
00000050: c317 593f 53d1 613f 9b55 6d3f 0a49 663f
00000060: b3ee 6c3f 08e2 663f 2bf7 683f 59d4 6d3f
00000070: 2407 6d3f e398 613f cb46 693f 9085 6c3f
00000080: 7c64 683f 2d87 643f ba9e 5e3f a356 663f
00000090: 6f55 5c3f df20 663f 6ffb 5b3f c353 6d3f
000000a0: 8673 6c3f 0f41 6f3f 1b82 583f 6e4d 763f
000000b0: 14c9 5e3f 3549 643f 5e90 6a3f 1ea2 7e3f
000000c0: deda 693f 0587 6a3f 76e0 663f 22fd 683f
000000d0: 8a09 6c3f 282b 6a3f f306 6e3f 4366 693f
000000e0: 3b01 693f 5e3e 713f 6a45 683f 934d 5b3f
000000f0: fc47 6b3f 50b7 6e3f ff68 6e3f abba 623f
00000100: c165 583f f692 6e3f abb6 643f 10db 5a3f
00000110: 488f 693f d041 5b3f 6ed1 643f 41a8 693f
00000120: ba31 6f3f a3c2 613f 4bc5 603f d5d6 6b3f
00000130: f4a8 693f 6f23 6a3f 7abc 633f 027e 5a3f
00000140: ca5a 693f a6bd 693f 22f9 6c3f 22d2 653f
00000150: 95de 663f 2e4f 653f 7fe0 623f f945 723f
00000160: bc7b 653f e12c 6a3f e85e 5f3f 9a88 683f
00000170: 0c9d 603f dc24 5c3f f586 653f e924 5f3f
00000180: 2fa2 643f 4caf 6f3f da23 6a3f 3d1c 653f
00000190: 7970 5a3f 1c01 623f 7cc6 6d3f 1508 663f
000001a0: 3f46 653f ebb5 593f e0ce 553f 8af0 613f
000001b0: 858c 613f 96be 6c3f daf3 633f c079 6a3f
000001c0: e6b1 623f 6dec 633f 8c1a 6b3f 2ad2 6a3f
000001d0: 1b2a 613f 6660 753f e9ad 6c3f be3e 633f
000001e0: cdad 683f 2a0f 6c3f bfb9 6c3f ec02 6b3f
000001f0: 5827 6b3f a814 693f 1ab9 693f 21eb 743f
00000200: 28da 673f e238 633f 278d 683f 8c63 693f
00000210: 83ee 5f3f 1534 5d3f 2572 5d3f 616f 5e3f
00000220: 9163 653f 9f29 623f e616 6c3f 2fc1 633f
00000230: 4ec7 673f df98 703f f011 643f aa04 523f
00000240: ae40 603f bc2b 5f3f bac1 613f 1ddf 6f3f
00000250: 16e1 643f f7f8 5b3f 8959 623f 3ec1 653f
00000260: bc68 6a3f 363b 623f 1087 673f 5311 663f
00000270: ac35 693f b995 6e3f 7ede 5c3f dc44 5d3f
00000280: 735d 683f d21f 673f b1f4 663f dec0 623f
00000290: 5fd5 623f 3aac 673f 0a23 643f a193 653f
000002a0: 0aae 5e3f f062 663f 6a7a 603f 4bfc 643f
000002b0: 5fbc 5d3f 8c3c 663f 5de8 6b3f 214a 5d3f
000002c0: f61e 6d3f 1b2b 6a3f 8f5e 633f 9f35 693f
000002d0: 8b7b 5e3f 82ad 653f 835e 633f 660d 693f
000002e0: 0d87 693f 0071 5e3f c160 583f 3550 683f
000002f0: a82e 6c3f a895 633f 8208 5a3f c032 663f
00000300: 239e 683f 99f4 5c3f 5616 643f f6c3 6a3f
00000310: 0f67 6e3f ffe6 5c3f e199 693f 1944 613f
00000320: ade8 6f3f bd8e 6d3f b2c3 723f 9b03 6a3f
00000330: 2e39 663f 963e 683f 1e5f 6c3f d72d 703f
00000340: 221f 653f d0e4 573f 8bc5 5d3f cfd6 703f
00000350: 2ba7 633f 3bf8 6c3f 12f0 663f 1e6c 6c3f
00000360: 1c82 6c3f 7a97 6d3f 6342 523f 2167 5b3f
00000370: 0157 653f 9c3f 6a3f 0c6e 5f3f 8e0e 613f
00000380: 6c04 6c3f cbcc 5d3f 897e 673f 992c 673f
00000390: 9a37 613f 4ee1 683f 74dc 5c3f d061 653f
000003a0: 0627 6e3f ce9d 5d3f 4855 643f 5358 633f
000003b0: b003 7d3f e1c3 573f 32d3 653f cd0a 633f
000003c0: f031 653f 098f 593f 0073 6a3f acbb 623f
000003d0: 5632 6f3f 0668 6e3f c293 673f f500 663f
000003e0: 938d 5a3f f251 603f 83e0 613f 6524 763f
000003f0: e288 6d3f 757c 723f fbbe 6a3f 2584 6a3f

net.2.bias f4 [256]
-0.01841288 -0.029536307 -0.009041063 -0.01043314 0.0037545844 -0.020000326 -0.0055104517 0.0038255374
-0.0111839995 0.010623534 0.028759992 -0.018214192 0.03474184 0.028323742 -0.016966864 -0.01707962
-0.0068681925 0.006615021 0.0016402988 -0.020868195 0.020586422 0.026604604 0.013272083 0.0032402228
-0.0078090844 -0.011390565 0.016080903 0.015765537 5.2037885e-05 -0.00771292 -0.0034934862 0.034808073
0.022596005 -0.019881275 -0.010529569 0.0026872186 -0.015186653 -0.018154528 0.008458263 0.0023942438
-0.026529184 -0.011561277 0.011233879 -0.010267755 0.00090602326 -0.0022356804 -0.0077516474 -0.02798946
-0.023350235 -0.0030185995 0.012925277 0.038344502 -0.0011134957 -0.0017771313 -0.0061927564 -0.026836663
-0.0014002216 -0.009036567 0.00855879 0.023337835 0.0011003143 0.0015587357 0.006840566 -0.00676779
0.020884946 -0.012929802 0.0027479175 0.009329046 -0.00779718 0.0019063809 -0.009437704 -0.019566935
0.010089624 0.027365442 -0.04800087 -0.010802978 -0.0044075246 -0.038405437 0.0074619334 0.009358702
-0.03148943 -0.0058429283 0.014891467 -0.005798218 0.0062716496 -0.005269268 -0.015866242 -0.018634882
0.018359805 -0.01941827 -0.00016427347 -0.024626296 0.020027073 0.003153647 -0.028974947 -0.00760347
0.015633013 0.0010157262 -0.006659088 0.009576183 0.012005996 0.019053007 -0.020446897 -0.004554868
-0.0143032335 -0.01850679 0.008253936 0.0072970893 -0.016443778 -0.00052132335 -0.038293086 -0.01453962
0.010901165 0.011575248 0.017635647 0.0001476603 -0.021106457 0.0013385615 -0.004592773 -0.009364177
-0.0067720897 0.010181365 -0.0042751343 -0.015987761 -0.02323744 -0.019366955 -0.01307138 -0.01848665
-0.0052730744 0.012234335 -0.0056895427 -0.001309998 -0.015947863 -0.00013744038 0.014898398 -0.015144716
-0.017666642 0.016907357 0.0067775934 0.040958345 -0.0033608645 -0.005628383 -0.0039106384 0.0068633016
-0.013786108 -0.0072990786 -0.0093655065 -0.014818392 0.0029329543 0.023839837 0.0008816694 -0.017573657
-0.020629847 0.0068671666 0.0053410265 -0.008259435 -0.012122627 0.022306 0.012871862 -0.00026114704
-0.01363373 -0.016584136 0.0006321231 0.01706113 0.01091387 0.045806088 0.028560828 -0.018861825
-0.03309262 -0.009146707 0.0018505261 -0.008571804 0.00036201635 -0.008051386 -0.008686429 -0.018499568
0.013539798 -0.0059003537 0.011714254 0.003834248 0.006474358 0.0059080836 0.021897418 -0.01771302
-0.026697312 -0.0057281055 -0.0023695603 0.011535271 -0.0013740701 -0.013857148 0.0017304984 0.0008347403
-0.00578371 0.019120201 0.009264722 0.0033756718 -0.036591288 0.0063013276 -0.03667654 -0.0026805769
-0.003339496 -0.003996474 -0.014584261 -0.00667747 -0.016816646 -0.0064415694 -0.018725958 -0.02444406
-0.027621185 0.031492237 0.019586904 0.003951303 0.008159988 -0.012618899 -0.021437174 0.00659315
0.018310098 -0.017700456 0.024599088 -0.0044891154 -0.03413947 -0.013250085 0.0045280117 0.0035906413
-0.0192935 -0.0060789348 -0.0020046048 0.0117196 0.0012151451 -0.019199202 0.006734761 0.007199635
0.0009910504 0.0014290289 0.020620069 0.010134669 -0.0010435978 0.01169651 -0.011029643 -0.0052892664
0.0076197935 0.0013202128 0.010100179 -0.006735989 -0.015113277 0.004784024 0.029434016 0.010984477
0.0043069175 -0.013200014 -0.029925244 -0.036708858 -0.02341319 -0.005891936 -0.0067515583 -0.02207762
00000000: 9cd6 96bc 20f6 f1bc f720 14bc c3ef 2abc
00000010: 790f 763b b9d7 a3bc 0591 b4bb deb5 7a3b
00000020: 183d 37bc 550e 2e3c 139a eb3c ee35 95bc
00000030: 764d 0e3d 3107 e83c 18fe 8abc 8fea 8bbc
00000040: 930e e1bb d1c2 d83b 4bff d63a c7f3 aabc
00000050: dba4 a83c e6f1 d93c 2773 593c eb59 543b
00000060: 59e3 ffbb 7e9f 3abc 19bc 833c ba26 813c
00000070: 4143 5a38 aabc fcbb f9f2 64bb e992 0e3d
00000080: 421b b93c 0ede a2bc 3784 2cbc 0c1c 303b
00000090: 70d1 78bc ceb8 94bc 8794 0a3c bfe8 1c3b
000000a0: bb53 d9bc 836b 3dbc 4e0e 383c 163a 28bc
000000b0: 3182 6d3a 7e84 12bb 8801 febb 274a e5bc
000000c0: fe48 bfbc b2d3 45bb 8bc4 533c 200f 1d3d
000000d0: b7f2 91ba a2ee e8ba 9bec cabb 90d8 dbbc
000000e0: a487 b7ba 1c0e 14bc 2b3a 0c3c fd2e bf3c
000000f0: 6c38 903a 7e4e cc3a d426 e03b 56c4 ddbb
00000100: e816 ab3c 85d7 53bc 6816 343b dbd8 183c
00000110: 7d7f ffbb 87df f93a 9aa0 1abc d64a a0bc
00000120: f34e 253c 7e2d e03c 8f9c 44bd f9fe 30bc
00000130: ff6c 90bb 054f 1dbd 3c83 f43b 3e55 193c
00000140: 10fb 00bd 0976 bfbb 57fb 733c fafe bdbb
00000150: 6982 cd3b d3a9 acbb ecf9 81bc 2ea8 98bc
00000160: 4d67 963c 1013 9fbc d340 2cb9 16bd c9bc
00000170: d10f a43c 6bad 4e3b de5c edbc 8726 f9bb
00000180: ce10 803c 1e22 853a 7b34 dabb 6ce5 1c3c
00000190: ccb4 443c 0d15 9c3c 4080 a7bc 0141 95bb
000001a0: 1c58 6abc 8d9b 97bc 843b 073c 6c1c ef3b
000001b0: 1ab5 86bc 6ba9 08ba 36d9 1cbd 9637 6ebc
000001c0: cd9a 323c 1ca6 3d3c a278 903c 43d5 1a39
000001d0: 73e7 acbc ac72 af3a f97e 96bb 346c 19bc
000001e0: 68e8 ddbb bdcf 263c 6d16 8cbb c4f8 82bc
000001f0: 725c bebc 73a7 9ebc 5729 56bc 5171 97bc
00000200: c1c9 acbb 8572 483c 586f babb 3db4 abba
00000210: 18a5 82bc df1d 10b9 6918 743c 8b21 78bc
00000220: a2b9 90bc 4c81 8a3c 9316 de3b f0c3 273d
00000230: f341 5cbb 4c6e b8bb d024 80bb 8ce5 e03b
00000240: 21df 61bc 1c2d efbb c871 19bc d7c8 72bc
00000250: cf36 403b c34b c33c d51f 673a a1f6 8fbc
00000260: edff a8bc f805 e13b c703 af3b 9552 07bc
00000270: fc9d 46bc 13bb b63c 81e4 523c 90ea 88b9
00000280: 0260 5fbc 74db 87bc 10b5 253a c8c3 8b3c
00000290: 17d0 323c 2a9f 3b3d 66f8 e93c 1d84 9abc
000002a0: 218c 07bd 12dc 15bc 5a8d f23a c070 0cbc
000002b0: 03cd bd39 f6e9 03bc 8651 0ebc 688c 97bc
000002c0: 07d6 5d3c c157 c1bb 24ed 3f3c 0248 7b3b
000002d0: da26 d43b 9998 c13b 3762 b33c e51a 91bc
000002e0: 52b4 dabc d5b2 bbbb a04a 1bbb 6ffe 3c3c
000002f0: 241a b4ba 1709 63bc e4d1 e23a 79d2 5a3a
00000300: 4785 bdbb f8a1 9c3c 0fcb 173c 603a 5d3b
00000310: bfe0 15bd 5e7b ce3b 243a 16bd 9eac 2fbb
00000320: 72db 5abb dbf4 82bb d3f2 6ebc aece dabb
00000330: 10c3 89bc cd13 d3bb 2e67 99bc e93e c8bc
00000340: d345 e2bc 01fe 003d b774 a03c ef79 813b
00000350: 78b1 053c 80bf 4ebc 039d afbc 5a0b d83b
00000360: 0fff 953c 8c00 91bc 0784 c93c 6e19 93bb
00000370: d4d5 0bbd e216 59bc b75f 943b f750 6b3b
00000380: 670d 9ebc cd31 c7bb b05f 03bb 9103 403c
00000390: 8145 9f3a a547 9dbc 45af dc3b eaea eb3b
000003a0: 22e6 813a 414e bb3a 6beb a83c e20b 263c
000003b0: 55c9 88ba b8a2 3f3c adb5 34bc 9551 adbb
000003c0: 76af f93b fe0a ad3a 397b 253c 92b9 dcbb
000003d0: ae9d 77bc 4dc3 9c3b 9b1f f13c 3cf8 333c
000003e0: 0b21 8d3b df44 58bc c925 f5bc 075c 16bd
000003f0: 05cd bfbc 2411 c1bb 2d3c ddbb 20dc b4bc

net.4.weight f4 [256, 256]
-0.057905484 0.0037084708 0.0018691993 -0.02555753 0.062084805 0.055764966 0.052109912 0.030392045
0.0385491 0.021171346 -0.003108384 0.0300912 -0.04325087 0.0373489 0.030162822 -0.034684706
0.051162664 -0.02096475 -0.0640479 0.042964473 0.027818771 -0.032253377 0.08710825 0.027836628
-0.024700368 0.069361955 0.0030397307 0.031051204 -0.00773149 0.006576849 -0.03213771 -0.0025247827
-0.028298395 0.063520834 -0.00092147884 -0.005940055 -0.02894513 0.047958743 -0.012825187 0.024795253
0.011468932 0.03732083 -0.0023985738 0.011501586 0.06904136 -0.016024297 0.009022093 0.05145132
0.0022676613 -0.010096834 0.036225647 -0.030015837 -0.016480308 -0.0057249353 0.0645149 0.054855715
0.0016244014 -0.040834963 -0.03698872 0.07804939 -0.034328565 0.024242636 -0.012260441 0.037600666
0.053431854 0.029688636 -0.010288192 0.048065875 0.003671616 -0.0072631207 -0.022130525 -0.008290161
-0.0061729616 0.021343753 -0.0032704514 0.048936363 0.021469872 0.017430568 -0.0031655123 0.03394823
0.04458467 0.0031304955 -0.06603325 0.017054206 -0.039671954 -0.00642842 -0.049317896 -0.057660807
0.03795938 0.044647712 -0.038310166 0.019634293 -0.037069928 0.061778422 -0.0253295 0.061560165
-0.031115422 -0.044770874 -0.031046716 0.025540916 -0.030685652 -0.046649598 0.002502535 0.037631035
0.038633186 -0.04463334 0.0066808276 0.033204034 0.027437828 -0.0081610605 -0.025867587 -0.044558927
-0.07228968 -0.019357134 -0.018514482 0.03183144 0.019339874 -0.009839416 -0.031962775 0.011224716
0.06874719 0.030739663 -0.03106534 -0.034757 0.04475047 0.00010022139 -0.02675798 -0.03016379
0.039508216 0.011722368 -0.029001435 -0.013389746 0.052507903 -0.026672745 -0.041377638 0.056581758
-0.021185106 0.014306364 -0.032868717 -2.425553e-05 -0.0110380305 -0.03549495 -0.034977037 -0.023932686
0.039646532 -0.041673955 -0.04455423 -0.03092182 -0.04711317 -0.00046950456 0.0067424136 0.03286275
0.060271516 0.073717415 -0.031331502 -0.03735039 0.01565503 0.02076772 -0.048097994 -0.020699583
-0.027150156 0.042164505 -0.0124673415 -0.03867402 -0.034421615 0.0033744788 -0.051273882 0.060468644
0.042931635 0.002652186 0.0013036928 -0.046654344 -0.029255217 0.004320604 -0.026646787 0.054080855
-0.026241703 0.05548301 0.022482779 0.017677566 0.0028310865 0.015977453 0.0618477 0.053829417
0.050642725 0.027266324 0.029640738 -0.041218113 -0.01640609 -0.011183365 -0.047757432 -0.05132496
0.040408246 -0.032504592 -0.028861543 0.03794586 -0.008908564 0.03336279 -0.0067596147 0.039816327
0.05487941 -0.04836301 0.019306196 0.033062182 -0.04073344 -0.03665672 0.037118737 -0.020749642
-0.050699886 0.019457607 0.040253475 -0.019714504 0.024905339 -0.03216885 -0.03219751 0.019318068
-0.02346636 -0.005310332 0.004992532 0.009634035 -0.023382945 0.00712263 0.01115571 -0.041703448
-0.024131335 -0.014641691 -0.0022062343 -0.044147674 0.03155071 0.04524123 -0.05053177 0.020968802
0.03236997 0.012595154 -0.030155912 0.0028144356 -0.000565069 0.045122765 -0.029690882 0.044259835
0.011671864 -0.02475224 -0.06801474 -0.030667018 0.0547849 0.08956131 0.0056216326 -0.031406526
0.022140615 -0.013304161 -0.031474035 0.0093673 0.017341446 0.037918348 0.0058060195 0.010502988
00000000: 4d2e 6dbd d109 733b ecff f43a 065e d1bc
00000010: a34c 7e3d ce69 643d 3471 553d bdf8 f83c
00000020: a9e5 1d3d 886f ad3c 08b6 4bbb d281 f63c
00000030: d327 31bd 29fb 183d 0618 f73c 8d11 0ebd
00000040: f18f 513d 44be abbc 8c2b 83bd 84fb 2f3d
00000050: 31e4 e33c 1e1c 04bd cf65 b23d a409 e43c
00000060: 6d58 cabc a40d 8e3d 3836 473b 185f fe3c
00000070: 7058 fdbb 9c82 d73b d5a2 03bd d376 25bb
00000080: 09d2 e7bc 3617 823d 668f 71ba cba4 c2bb
00000090: 561e edbc 6370 443d bc20 52bc 6a1f cb3c
000000a0: 30e8 3b3c badd 183d 6431 1dbb 2671 3c3c
000000b0: 8e65 8d3d 6345 83bc 67d1 133c 9fbe 523d
000000c0: 0b9d 143b 316d 25bc 5861 143d c6e3 f5bc
000000d0: b601 87bc 3d98 bbbb 6320 843d 63b0 603d
000000e0: dee9 d43a 9042 27bd 7c81 17bd 5cd8 9f3d
000000f0: 1c9c 0cbd 7e98 c63c 04e0 48bc 2803 1a3d
00000100: 5cdb 5a3d 9535 f33c ce8f 28bc b9e0 443d
00000110: 7f9f 703b 79ff edbb 134b b5bc 75d3 07bc
00000120: 8e46 cabb 18d9 ae3c 1255 56bb 7f71 483d
00000130: 96e1 af3c 8dca 8e3c 7c74 4fbb 4d0d 0b3d
00000140: 6a9e 363d 0029 4d3b 713c 87bd 43b5 8b3c
00000150: 0f7f 22bd 7fa5 d2bb 9001 4abd bd2d 6cbd
00000160: 4b7b 1b3d 85e0 363d 1feb 1cbd 19d8 a03c
00000170: a3d6 17bd 5f0b 7d3d d07f cfbc 8326 7c3d
00000180: c5e5 febc aa61 37bd af55 febc 2f3b d13c
00000190: 7a60 fbbc a613 3fbd 9201 243b 0023 1a3d
000001a0: d53d 1e3d 73d1 36bd d8ea da3b f400 083d
000001b0: 4cc5 e03c f8b5 05bc 43e8 d3bc 6c83 36bd
000001c0: 9d0c 94bd da92 9ebc afab 97bc af61 023d
000001d0: a86e 9e3c 8035 21bc 66eb 02bd dfe7 373c
000001e0: 54cb 8c3d bfd1 fb3c bd7c febc 5b5d 0ebd
000001f0: 454c 373d f32d d238 8d33 dbbc 0d1a f7bc
00000200: 5ed3 213d 2d0f 403c 6b94 edbc aa60 5bbc
00000210: 8712 573d cd80 dabc 997b 29bd 46c2 673d
00000220: 638c adbc 3d65 6a3c 59a1 06bd 5b78 cbb7
00000230: dbd8 34bc 2763 11bd 1544 0fbd 7b0e c4bc
00000240: 6764 223d 4fb2 2abd 7f7e 36bd c24f fdbc
00000250: bdf9 40bd d627 f6b9 77ef dc3b 179b 063d
00000260: 44df 763d 28f9 963d 7655 00bd b9fc 18bd
00000270: fa3e 803c 1121 aa3c 6702 45bd 2c92 a9bc
00000280: 016a debc b0b4 2c3d d243 4cbc a668 1ebd
00000290: aefd 0cbd 5c26 5d3b 9004 52bd f8ad 773d
000002a0: 15d9 2f3d 4cd0 2d3b ace0 aa3a a018 3fbd
000002b0: a3a8 efbc da93 8d3b 5d4a dabc e383 5d3d
000002c0: d7f8 d6bc 2742 633d ce2d b83c 8bd0 903c
000002d0: c089 393b 26e3 823c 0454 7d3d 3c7c 5c3d
000002e0: bf6e 4f3d a05d df3c 22d1 f23c 53d4 28bd
000002f0: 1166 86bc 6f3a 37bc 4c9d 43bd 1f3a 52bd
00000300: 1e83 253d 8923 05bd 0b6f ecbc 1e6d 1b3d
00000310: 3af5 11bc 6ca7 083d c27f ddbb 7216 233d
00000320: 3bc9 603d 4b18 46bd 0728 9e3c 366c 073d
00000330: 1cd8 26bd 5b25 16bd d109 183d 27fb a9bc
00000340: afaa 4fbd 8f65 9f3c d4e0 243d 5080 a1bc
00000350: 4806 cc3c 7cc3 03bd 89e1 03bd ed40 9e3c
00000360: 863c c0bc 4b02 aebb 6598 a33b 12d8 1d3c
00000370: 978d bfbc f364 e93b 70c6 363c 3cd1 2abd
00000380: 14af c5bc b4e3 6fbc 7896 10bb 31d4 34bd
00000390: 513b 013d de4e 393d 67fa 4ebd c4c6 ab3c
000003a0: 6096 043d e85b 4e3c 8809 f7bc 6572 383b
000003b0: 2321 14ba a6d2 383d 4b3a f3bc cd49 353d
000003c0: 593b 3f3c 36c5 cabc 504b 8bbd 6639 fbbc
000003d0: 2266 603d ec6b b73d ac35 b83b 21a4 00bd
000003e0: 3c60 b53c b2f9 59bc ebea 00bd 4e79 193c
000003f0: a60f 8e3c 4550 1b3d 6c40 be3b b914 2c3c

net.4.bias f4 [256]
-0.04291877 0.040792793 -0.057818417 -0.08606026 -0.020109344 -0.029473932 -0.016059114 -0.05638289
-0.011451816 -0.01842847 0.011505205 0.031653762 0.04745699 -0.015685057 0.02393811 -0.04852962
-0.054824263 -0.009225466 -0.05712491 -0.0055942205 0.057506934 0.0031732214 0.023541482 0.035639018
-0.012338719 -0.025503322 0.035160232 -0.029523108 -0.07092498 0.05502505 -0.06069519 -0.017123302
-0.06159767 -0.037042562 -0.01147782 -0.0038755294 0.083469465 -0.020562368 -0.047809064 -0.043468617
0.030131992 0.031090874 0.03815763 -0.022330917 -0.058123816 0.016402172 0.04827949 -0.013552087
0.007359107 0.0031101627 0.009089001 -0.05058694 -0.081296265 -0.018185806 0.021176081 -0.052409522
-0.021389406 0.032681298 0.027823096 -0.035386782 0.031758837 -0.03500044 -0.0314396 -0.046240427
-0.023570526 0.0028075252 -0.004798332 0.03860801 -0.009553287 -0.019587263 -0.0646442 -0.048598073
-0.021420361 -0.007927933 -0.02763135 -0.0066567603 -0.006701781 -0.03493456 0.034943707 -0.01089163
-0.07058544 -0.049876213 -0.03769481 -0.05859291 -0.00040325377 -0.011963709 0.007969454 0.017665507
-0.025052125 0.030185083 -0.0012932145 -0.012295703 -0.040455624 -0.03595387 -0.026926525 0.060790416
-0.060504958 0.022232369 -0.052918643 0.0009247446 0.044924997 0.005720595 -0.03787779 -0.04188096
-0.013206718 0.04847528 -0.031941473 0.024602713 -0.0019887015 0.015036155 0.007772563 -0.02742058
-0.00031190587 0.11180105 -0.06509512 -0.0421095 -0.015521054 0.0021734172 0.056355923 0.001579698
0.09709506 -0.060966834 -0.028140288 0.0060296035 0.025006974 -0.044755585 -0.031946346 0.021543924
0.009630422 -0.0005099585 0.028251784 -0.012334314 -0.02445937 -0.007389509 0.004353977 -0.021378225
-0.024477724 -0.0364341 -0.06936903 -0.016466713 -0.046559844 -0.06730647 -0.05435602 -0.05109532
0.03927506 -0.049366053 0.055184085 -0.041848823 -0.033281885 -0.05044061 -0.015337835 0.08557484
-0.048111107 -0.066215925 0.001354496 -0.026421752 -0.028060377 -0.04481714 0.028505085 0.044126213
0.06702193 -0.027292121 -0.071457244 0.07738308 0.02378469 -0.014587094 -0.020223621 0.0118347
-0.036112092 0.0063666026 0.001553961 -0.032590818 0.04274068 -0.0018130796 0.040826235 -0.021010185
-0.04310779 -0.038053818 -0.071045324 0.02342135 -0.045132566 0.05202035 -0.024180178 0.023163868
-0.02606858 -0.03877591 -0.04563503 -0.030831788 -0.06278657 -0.023297176 0.023093741 0.025697805
0.01207718 0.01854011 -0.046533473 -0.0033123167 -0.035088614 -0.0396463 -0.011083543 -0.02668565
-0.008375694 -0.045317393 -0.0061721387 0.039906982 0.009894128 0.031477787 0.0639178 0.060087327
-0.03883378 -0.053440817 -0.053123515 0.006692857 -0.0428228 -0.021539846 -0.015143105 0.023810536
-0.024934908 -0.03603848 -0.075392865 -0.022289628 0.008525407 -0.0389078 -0.01086571 -0.019957539
0.0045789853 0.016269844 0.031685524 -0.062003624 0.04950181 -0.019788548 0.053827595 -0.02282058
-0.025264041 0.034345943 0.027211662 -0.031294644 -0.0076555605 0.017923174 -0.020759204 0.04176092
-0.056098804 -0.026999222 -0.0103661595 -0.022724764 -0.060247652 0.018941991 -0.054166514 -0.05754776
-0.021227537 -0.03002663 -0.039046243 -0.0010446183 0.007288516 -0.043190498 -0.056419067 -0.050039165
00000000: 98cb 2fbd 5816 273d 01d3 6cbd 5d40 b0bd
00000010: 5abc a4bc 5173 f1bc 678e 83bc bff1 66bd
00000020: 66a0 3bbc 4df7 96bc 5480 3c3c 60a7 013d
00000030: 4362 423d f37d 80bc db19 c43c ffc6 46bd
00000040: 688f 60bd 6926 17bc cffb 69bd b94f b7bb
00000050: 648c 6b3d d2f5 4f3b 11da c03c 38fa 113d
00000060: 5728 4abc 58ec d0bc 2d04 103d 72da f1bc
00000070: 1e41 91bd f261 613d 859b 78bd 2b46 8cbc
00000080: d74d 7cbd f1b9 17bd 770d 3cbc 98fc 7dbb
00000090: 0af2 aa3d 6972 a8bc 70d3 43bd 260c 32bd
000000a0: 5ed7 f63c 4ab2 fe3c 2d4b 1c3d 54ef b6bc
000000b0: 3d13 6ebd d95d 863c b7c0 453d 9309 5ebc
000000c0: aa24 f13b dfd3 4b3b 09ea 143c 4034 4fbd
000000d0: a87e a6bd 66fa 94bc 7679 ad3c 5eab 56bd
000000e0: d638 afbc d3dc 053d 43ed e33c bbf1 10bd
000000f0: 8e15 023d 9f5c 0fbd cfc6 00bd 9a66 3dbd
00000100: fa16 c1bc 75fe 373b 543b 9dbb 6f23 1e3d
00000110: 6485 1cbc 7875 a0bc 2e64 84bd c60e 47bd
00000120: c179 afbc 29e4 01bc 245b e2bc f420 dabb
00000130: 9d9a dbbb 8b17 0fbd 2221 0f3d cf72 32bc
00000140: 198f 90bd 004b 4cbd e065 1abd 1fff 6fbd
00000150: ce6b d3b9 6f03 44bc 5092 023c 41b7 903c
00000160: 1d3a cdbc b546 f73c 1481 a9ba eb73 49bc
00000170: ccb4 25bd 5d44 13bd 0495 dcbc 5fff 783d
00000180: 0cd4 77bd a820 b63c 38c1 58bd 8f6a 723a
00000190: 4603 383d d473 bb3b be25 1bbd 5f8b 2bbd
000001a0: fd60 58bc 048e 463d 10d5 02bd a18b c93c
000001b0: e054 02bb 345a 763c fcb0 fe3b 20a1 e0bc
000001c0: 4c87 a3b9 f3f7 e43d 9750 85bd 037b 2cbd
000001d0: 054c 7ebc e46f 0e3b 78d5 663d de0d cf3a
000001e0: c6d9 c63d 5cb8 79bd 7686 e6bc fb93 c53b
000001f0: 6ddb cc3c a251 37bd 2cda 02bd e27c b03c
00000200: ebc8 1d3c bcae 05ba 4970 e73c dd15 4abc
00000210: 045f c8bc b223 f2bb ceab 8e3b 6321 afbc
00000220: 8285 c8bc ec3b 15bd 5a11 8ebd 33e5 86bc
00000230: 89b5 3ebd f9d7 89bd 6ba4 5ebd 5449 51bd
00000240: e3de 203d 0f34 4abd b508 623d ac69 2bbd
00000250: 9652 08bd d09a 4ebd 8b4b 7bbc dd41 af3d
00000260: 2710 45bd 379c 87bd 5889 b13a 6e72 d8bc
00000270: e0de e5bc 2d92 37bd 7f83 e93c b0bd 343d
00000280: cb42 893d ba93 dfbc 2d58 92bd 057b 9e3d
00000290: 1cd8 c23c b5fe 6ebc 02ac a5bc 54e6 413c
000002a0: 46ea 13bd ef9e d03b 47ae cb3a f37d 05bd
000002b0: da10 2f3d dba4 edba 6939 273d 8d1d acbc
000002c0: cb91 30bd 52de 1bbd 3680 91bd 22de bf3c
000002d0: eddc 38bd 4a13 553d 8215 c6bc 27c2 bd3c
000002e0: c68d d5bc 7dd3 1ebd cceb 3abd f292 fcbc
000002f0: 3f96 80bd b8d9 bebc 162f bd3c 3484 d23c
00000300: 5ddf 453c 6ee1 973c e299 3ebd 7413 59bb
00000310: 14b9 0fbd 2964 22bd c097 35bc dd9b dabc
00000320: 353a 09bc bb9e 39bd a73f cabb 8175 233d
00000330: fb1a 223c daee 003d 56e7 823d 211e 763d
00000340: 2b10 1fbd c2e4 5abd 0b98 59bd c14f db3b
00000350: f666 2fbd 5574 b0bc c91a 78bc 500e c33c
00000360: 4b44 ccbc 169d 13bd 9367 9abd bd98 b6bc
00000370: 26ae 0b3c c95d 1fbd 1706 32bc fe7d a3bc
00000380: 500b 963b 5648 853c aec8 013d 83f7 7dbd
00000390: 69c2 4a3d 981b a2bc 537a 5c3d 3af2 babc
000003a0: 89f6 cebc 55ae 0c3d feea de3c d02e 00bd
000003b0: 7fdb fabb 9fd3 923c 350f aabc 800d 2b3d
000003c0: dcc7 65bd 792d ddbc d3d6 29bc 4929 babc
000003d0: 3ec6 76bd 3c2c 9b3c b5dd 5dbd 33b7 6bbd
000003e0: 5fe5 adbc 68fa f5bc f4ee 1fbd 93eb 88ba
000003f0: 81d4 ee3b 85e8 30bd ae17 67bd def5 4cbd

net.6.weight f4 [256]
0.87829477 0.8948295 0.8954065 0.90177566 0.73185146 0.8865555 0.924247 0.88481605
0.91552764 0.88481975 0.8828525 0.8845061 0.88488 0.9276597 0.9153825 0.9029193
0.9235991 0.8924168 0.9109343 0.92164224 0.8873586 0.9074818 0.8846 0.87395155
0.88055843 0.84346074 0.797565 0.85704505 0.89201117 0.87284136 0.8986301 0.89678305
0.8907755 0.8946627 0.9003931 0.8959966 0.88205457 0.90248597 0.87896353 0.89043546
0.90691835 0.8917439 0.9151852 0.8969058 0.8881874 0.8742513 0.89087737 0.895298
0.88261926 0.9167448 0.89977247 0.9153606 0.9121351 0.8835441 0.8945497 0.8822651
0.88035566 0.89424944 0.9015324 0.8747908 0.8609387 0.82233673 0.89673924 0.86376697
0.89380413 0.863013 0.8282071 0.90464914 0.89959836 0.88697714 0.9139139 0.86877817
0.89057124 0.88732827 0.9025079 0.8746627 0.88303035 0.86873287 0.88469607 0.9301836
0.8527381 0.89085025 0.8625623 0.8738719 0.88535696 0.91080624 0.8366999 0.86892
0.9063029 0.8868834 0.92185277 0.90391374 0.85915744 0.8896412 0.89622563 0.9102404
0.90859115 0.9069536 0.91350263 0.9119356 0.891453 0.9123892 0.90635806 0.8518463
0.89408517 0.9103576 0.90123355 0.896673 0.8829032 0.91303486 0.8748987 0.90120995
0.8783037 0.80733454 0.87513304 0.8921087 0.9060844 0.8902582 0.86122763 0.9049949
0.88785666 0.9087134 0.8753561 0.91832733 0.828888 0.9052144 0.91182053 0.9002657
0.88186413 0.901556 0.88323486 0.8607968 0.90916115 0.893634 0.85376257 0.8625043
0.90144295 0.8831518 0.90846276 0.8706143 0.89636713 0.8775745 0.90049887 0.9008619
0.8798282 0.88769364 0.89744604 0.8978666 0.88118744 0.8870819 0.88752425 0.88054967
0.85801125 0.91283125 0.8493366 0.8959413 0.8978405 0.93091846 0.90610516 0.8804031
0.8160181 0.895823 0.923737 0.88469875 0.88426256 0.89699334 0.92352146 0.873985
0.9014533 0.92454946 0.8672839 0.8894641 0.89634335 0.9046073 0.90406024 0.9160836
0.89620286 0.8812737 0.88854575 0.9054478 0.8989117 0.88460916 0.89655656 0.8979788
0.88997096 0.8875092 0.8983989 0.88394237 0.8963238 0.90563637 0.9134099 0.85914457
0.9122637 0.9017056 0.8958041 0.8871723 0.90798336 0.86841905 0.87056273 0.8881138
0.8974328 0.8953371 0.8661644 0.870645 0.87423354 0.8857375 0.8590529 0.87532073
0.96541166 0.916134 0.90700626 0.8967045 0.90371394 0.8687981 0.9129291 0.91885245
0.8926129 0.8811878 0.8749195 0.89987886 0.87516534 0.9066241 0.85845107 0.8525852
0.9100258 0.8575654 0.8940685 0.8041565 0.890098 0.92246467 0.870399 0.90700656
0.89371175 0.8854733 0.892306 0.9042607 0.87958455 0.8879354 0.88750446 0.8974996
0.9116885 0.8803695 0.90522987 0.88835305 0.84839714 0.92031366 0.86913913 0.9252997
0.88612163 0.89113903 0.90179473 0.88882023 0.8750169 0.911661 0.91470355 0.8894302
00000000: edd7 603f 8c13 653f 5c39 653f c5da 663f
00000010: 9e5a 3b3f 4df5 623f 749b 6c3f 4e83 623f
00000020: 0560 6a3f 8c83 623f 9f02 623f fe6e 623f
00000030: 7f87 623f 1b7b 6d3f 8256 6a3f b825 673f
00000040: fe70 6c3f 6d75 643f fe32 693f bff0 6b3f
00000050: ef29 633f ba50 683f 2575 623f 4abb 5f3f
00000060: 476c 613f 0bed 573f 382d 4c3f 4e67 5b3f
00000070: d85a 643f 8872 5f3f 9f0c 663f 9393 653f
00000080: dd09 643f 9d08 653f 2a80 663f 0860 653f
00000090: 54ce 613f 5209 673f c103 613f 94f3 633f
000000a0: cd2b 683f 5449 643f 9449 6a3f 9e9b 653f
000000b0: 4060 633f efce 5f3f 8a10 643f 4032 653f
000000c0: 56f3 613f caaf 6a3f 7d57 663f 1355 6a3f
000000d0: b081 693f f22f 623f 3601 653f 20dc 613f
000000e0: fd5e 613f 88ed 643f d4ca 663f 4af2 5f3f
000000f0: 7b66 5c3f a984 523f b490 653f d51f 5d3f
00000100: 59d0 643f 6cee 5c3f 6105 543f 1697 673f
00000110: 144c 663f ef10 633f 43f6 693f 3f68 5e3f
00000120: 7afc 633f f227 633f c20a 673f e5e9 5f3f
00000130: 470e 623f 4765 5e3f 717b 623f 8320 6e3f
00000140: 0b4d 5a3f c30e 643f e2d0 5c3f 12b6 5f3f
00000150: c1a6 623f 992a 693f f731 563f 8b71 5e3f
00000160: 7803 683f ca0a 633f 8bfe 6b3f e466 673f
00000170: bef1 5b3f 87bf 633f 0b6f 653f 8405 693f
00000180: 6e99 683f 1c2e 683f 4fdb 693f 9d74 693f
00000190: 4436 643f 5792 693f 1507 683f 9912 5a3f
000001a0: c4e2 643f 320d 693f 3eb7 663f 5d8c 653f
000001b0: f205 623f a7bc 693f 5cf9 5f3f b2b5 663f
000001c0: 83d8 603f 7aad 4e3f b808 603f 3c61 643f
000001d0: 26f5 673f f6e7 633f 6a79 5c3f bfad 673f
000001e0: 934a 633f 71a1 683f 5617 603f 8017 6b3f
000001f0: 0132 543f 22bc 673f 126d 693f d077 663f
00000200: d9c1 613f 60cc 663f ae1b 623f 2e5d 5c3f
00000210: c9be 683f 33c5 643f 2f90 5a3f 15cd 5c3f
00000220: f7c4 663f 3d16 623f 0491 683f 94e0 5e3f
00000230: 5178 653f b9a8 603f 1887 663f e39e 663f
00000240: 6c3c 613f e43f 633f 06bf 653f 96da 653f
00000250: 8095 613f cd17 633f ca34 633f b46b 613f
00000260: a0a6 5b3f 4faf 693f 206e 593f 695c 653f
00000270: e0d8 653f ac50 6e3f 82f6 673f 1962 613f
00000280: 90e6 503f a854 653f 077a 6c3f 9e7b 623f
00000290: 085f 623f 5ba1 653f e76b 6c3f 7bbd 5f3f
000002a0: a5c5 663f 46af 6c3f 5106 5e3f ebb3 633f
000002b0: c276 653f 5894 673f 7e70 673f 7484 6a3f
000002c0: 8d6d 653f 279b 613f bc77 633f 6dcb 673f
000002d0: 141f 663f bf75 623f bb84 653f f0e1 653f
000002e0: 23d5 633f ce33 633f 78fd 653f 0c4a 623f
000002f0: 7a75 653f c9d7 673f 3bd5 693f e6f0 5b3f
00000300: 1d8a 693f 2ed6 663f 6b53 653f b91d 633f
00000310: 9971 683f b650 5e3f 33dd 5e3f 6d5b 633f
00000320: 28be 653f d034 653f f3bc 5d3f 97e2 5e3f
00000330: c5cd 5f3f b1bf 623f e4ea 5b3f 0515 603f
00000340: 3825 773f c287 6a3f 9031 683f 6d8e 653f
00000350: cc59 673f 8d69 5e3f b9b5 693f ea39 6b3f
00000360: 4782 643f 8695 613f b9fa 5f3f 765e 663f
00000370: d60a 603f 8418 683f 73c3 5b3f 0643 5a3f
00000380: 73f7 683f 6889 5b3f ace1 643f 33dd 4d3f
00000390: 76dd 633f a526 6c3f 78d2 5e3f 9531 683f
000003a0: 4bca 643f 61ae 623f 2b6e 643f a17d 673f
000003b0: 742c 613f bc4f 633f 7e33 633f 89c2 653f
000003c0: 6b64 693f e55f 613f 25bd 673f 1b6b 633f
000003d0: 8e30 593f ad99 6b3f e77f 5e3f 71e0 6c3f
000003e0: ded8 623f b021 643f 05dc 663f b989 633f
000003f0: 1c01 603f 9e62 693f 032a 6a3f b3b1 633f
