ANN_MLP/emotion_model.pt (torch, 312033 bytes, 8 tensors)

net.0.weight f4 [64, 1160]
0	0xbd8ea543	-0.06965115
1	0xbd2148d2	-0.039376087
2	0xbd479ee6	-0.04873552
3	0x3d149e29	0.036283646
4	0xbd580afb	-0.052744847
5	0x3d063024	0.032760754
6	0x3d0447dd	0.032295097
7	0x3d53897f	0.0516448
8	0xbd625564	-0.055257216
9	0xbc11dcc6	-0.008902734
10	0xbc58b667	-0.013227082
11	0xba5aac06	-0.00083416735
12	0x3d03dd2f	0.03219336
13	0xbbbc69a2	-0.005749897
14	0x3c9bb8e3	0.01900906
15	0x3c394b9b	0.01130953
16	0xbd42048e	-0.047367625
17	0xbc2df75d	-0.010618058
18	0xbb2da47c	-0.0026495745
19	0xbcfedeee	-0.03111216
20	0x3cc549c4	0.024083026
21	0x3ae8478f	0.0017721521
22	0x3a17e38f	0.0005794102
23	0xbd53dc29	-0.051723633
24	0x3cbb5983	0.022869831
25	0xbc670d08	-0.014102228
26	0xbc9b044b	-0.018922945
27	0xbc963b2c	-0.018338762
28	0x3cb485b2	0.022036407
29	0xbccd7c0a	-0.02508356
30	0x3cb20374	0.021730162
31	0xbac4372a	-0.0014970053
32	0xbc4e2690	-0.012582436
33	0xbc90bb7a	-0.01766752
34	0x3cc06f16	0.02349047
35	0x3c50e7cc	0.012750577
36	0xbd2dbb0f	-0.04241472
37	0xbcc0499c	-0.0234726
38	0x397efbf4	0.00024317187
39	0xbc01a21e	-0.007912187
40	0x3cabb327	0.02095945
41	0x3ccc138e	0.024911668
42	0xbc68ef37	-0.0142171895
43	0x3c7a3bf2	0.015273081
44	0xbb6b6348	-0.003591733
45	0x3bd32334	0.0064434055
46	0xbc8a2c3f	-0.016866801
47	0xbcd6f778	-0.02624105
48	0x3d35338b	0.04423861
49	0xbccf6ae9	-0.025319533
50	0x3c9377c3	0.018001443
51	0xbc88d00a	-0.016700763
52	0xbce4adde	-0.027914938
53	0x3d1ceaea	0.03830997
54	0xbc186419	-0.009301209
55	0xbd17bfe1	-0.037048224
56	0x3c01a060	0.007911772
57	0xbbe785fb	-0.0070655323
58	0xbcdb98ba	-0.026806224
59	0x3d486d9b	0.048932653
60	0xbc2547b7	-0.010087899
61	0x3d2b4ce4	0.041821375
62	0xbcf4795b	-0.029843023
63	0x3bc2e1c5	0.005947324
64	0x3c8e06ea	0.017337281
65	0xbc490421	-0.012269051
66	0xbc21936c	-0.009861808
67	0xbcc7a2fb	-0.024369707
68	0x3d291e92	0.04128892
69	0xbd55d7a5	-0.052207608
70	0xbaabecd4	-0.0013116845
71	0xbca67d39	-0.020323383
72	0xbc32a0ab	-0.010902564
73	0xbd102624	-0.035192624
74	0x3b9e1a47	0.00482491
75	0x3c71a884	0.01474965
76	0xbca37131	-0.019951435
77	0x3d399267	0.045305636
78	0xbcc8a736	-0.024493795
79	0xbb5a1078	-0.0033273976
80	0xbc05cf7a	-0.008167142
81	0xbcebc175	-0.028778771
82	0xbc547937	-0.012968353
83	0x3bf725cd	0.007542348
84	0xbbad8690	-0.005295582
85	0xb9115bac	-0.00013862428
86	0xbc4433af	-0.011975213
87	0x3cd55ec4	0.026046164
88	0xbc88fc94	-0.016722001
89	0xbd688073	-0.056763124
90	0x3d03c63d	0.032171477
91	0xba83e5a4	-0.0010062945
92	0x3c6a3864	0.014295671
93	0x3c0b72a4	0.008511219
94	0xbbfaec69	-0.007657577
95	0x3cfd77a9	0.030940847
96	0x3d03da77	0.032190766
97	0x3cf7539a	0.030191232
98	0x3c4e5e80	0.012595773
99	0x3c28b1b8	0.010296278
100	0x3d2bf764	0.041983977
101	0xbae2da09	-0.0017307411
102	0xbd19a909	-0.03751472
103	0xbbe754a9	-0.007059653
104	0xbc167b65	-0.009184693
105	0xbb8cf36f	-0.0043014805
106	0xbd07cebb	-0.033156138
107	0x3c9f1a2e	0.019421663
108	0xbd2d114c	-0.042252824
109	0xbc62b9f0	-0.013838276
110	0xbd02d22a	-0.03193871
111	0xbcd227ed	-0.025653804
112	0x3c9029b2	0.017598007
113	0xbd312857	-0.04325136
114	0xbcbf405f	-0.023346124
115	0xbc70b8a1	-0.014692456
116	0x3cedaeae	0.029013958
117	0xbcd22f68	-0.02565737
118	0xbc04f7b3	-0.008115697
119	0xbaca5929	-0.0015437949
120	0xbc861369	-0.016366677
121	0x3cc6d8f2	0.02427337
122	0x3c067248	0.008205958
123	0x3c87937e	0.016549822
124	0x3c81d559	0.015848802
125	0xbc8c5469	-0.017130094
126	0x3be2c1d3	0.0069200783
127	0xbbc3852e	-0.005966804
128	0x3cdd12c3	0.026986485
129	0xbc994de6	-0.018713903
130	0xbb750aba	-0.0037390427
131	0xbc7d5c1d	-0.015463856
132	0xbcde080f	-0.027103452
133	0xbcd3098d	-0.02576139
134	0xbd4562a4	-0.048189774
135	0x3d04d4a7	0.032429364
136	0x3c310f4b	0.010806869
137	0xbc3a1325	-0.0113571035
138	0xbb6ba56b	-0.003595675
139	0xbc4b47e5	-0.012407278
140	0x3b70d0b8	0.00367455
141	0x3c8672cb	0.01641216
142	0x3af958fe	0.0019023714
143	0x3ccb0951	0.024784716
144	0x3b34724b	0.0027533944
145	0xbb5b1fab	-0.0033435624
146	0xbcf528b4	-0.029926635
147	0x3c8548dd	0.016270095
148	0x3c416b04	0.0118053
149	0xbcc5bb53	-0.024137175
150	0xbd0991af	-0.0335862
151	0xbd89d9ab	-0.0673097
152	0xbda2919c	-0.07937929
153	0xbd2945eb	-0.041326445
154	0xbd6f007b	-0.058350068
155	0xbca5f22f	-0.020257084
156	0xbd19d700	-0.037558556
157	0xbd339cd2	-0.043850727
158	0xbc3e5a5a	-0.011618221
159	0xbb63efed	-0.0034780458
160	0xbbe49439	-0.0069756773
161	0xbcc532d0	-0.02407208
162	0xbcadc975	-0.021214226
163	0xbd278188	-0.040895015
164	0xbc124a96	-0.0089289155
165	0xbd5206c5	-0.051275987
166	0xbcd89347	-0.026437415
167	0xbd2a195a	-0.041528083
168	0x3b1cdc3e	0.0023934986
169	0xbd3e98f4	-0.046532586
170	0xbbb647e8	-0.005562771
171	0xbc1e9613	-0.009679335
172	0xbd068790	-0.032844126
173	0xbd72966c	-0.059225485
174	0xbd04ad85	-0.032392044
175	0xbc257316	-0.010098239
176	0xbccea8e2	-0.025227014
177	0xbca025aa	-0.01954921
178	0xbb115500	-0.0022175908
179	0xbd0572d6	-0.03258022
180	0xbd0e9728	-0.034812123
181	0xbcf7d615	-0.03025345
182	0x3c37ef2d	0.011226458
183	0xbcd2de10	-0.025740653
184	0xbc19b1e2	-0.0093807895
185	0x3c8c4c2c	0.017126165
186	0x3c8265a6	0.01591761
187	0xbc476528	-0.012170114
188	0x3cfcce58	0.030860111
189	0xbc778b02	-0.015108826
190	0xbcd7e8a1	-0.026356043
191	0xbc842447	-0.01613058
192	0xbca1d42d	-0.019754494
193	0xbd0cd040	-0.03437829
194	0xbcb6d418	-0.022317931
195	0x3c709f18	0.014686368
196	0xbba636be	-0.0050724437
197	0xbcca4298	-0.024689957
198	0x3b0f3a91	0.0021854977
199	0xbd06505d	-0.032791484
200	0xbcb9bea8	-0.02267392
201	0x3ca0cccd	0.019628907
202	0x3c4d6ad0	0.012537673
203	0xbd2fb1c0	-0.042894125
204	0x3b9983ef	0.004684917
205	0xbb95e127	-0.0045739594
206	0xbb851f1f	-0.004062548
207	0xbbec348f	-0.007208414
208	0x3cdddafe	0.027081963
209	0xbc514072	-0.012771713
210	0xbceaedb5	-0.0286778
211	0x3d32d58d	0.04366069
212	0x3d1412db	0.036150794
213	0x3b0ff322	0.0021964987
214	0xbab8d26c	-0.0014100797
215	0x3c8c8460	0.017152965
216	0x3be68666	0.0070350645
217	0x3b958cda	0.00456391
218	0xba122947	-0.0005575609
219	0xbcd90dfb	-0.026495924
220	0x3d0eed9d	0.034894574
221	0x3d2e6da7	0.04258504
222	0xbd0b8ae0	-0.03406799
223	0x3cd593f9	0.026071535
224	0x3b597f3b	0.0033187408
225	0xbc11d3bc	-0.008900579
226	0x3c87bd92	0.016569886
227	0x3c4be202	0.012444021
228	0x3b602ecd	0.0034207583
229	0x3c012332	0.007881926
230	0x3c539469	0.012913802
231	0xbce26549	-0.027636187
232	0xbb669544	-0.0035184184
233	0x3c022178	0.00794255
234	0x3cb3b000	0.02193451
235	0xbbc7b8c5	-0.0060950243
236	0xbca2dca3	-0.019880598
237	0x3c13378b	0.00898541
238	0xbc76a5bc	-0.015054163
239	0x3c9089f3	0.017643904
240	0xbc9c0f6a	-0.019050319
241	0xbb21501b	-0.0024614397
242	0xbca5f47f	-0.020258186
243	0x3c96c5c2	0.018404845
244	0xbaf74be0	-0.0018867217
245	0x3c9c3f50	0.019073159
246	0xbc169b7f	-0.009192347
247	0x3d402bcc	0.046916768
248	0x3c18ed45	0.009333913
249	0x3d27fbb1	0.041011516
250	0x3cafebe4	0.021474786
251	0xbc9ee022	-0.019393984
252	0x3b68d88d	0.0035529465
253	0xbcef58ec	-0.029217206
254	0xbd089a82	-0.033350475
255	0xbcb7d63f	-0.022441028

net.0.bias f4 [64]
0	0xbd847125	-0.06466893
1	0xb9b88e4c	-0.00035201234
2	0x3ed508da	0.41608316
3	0x3b73cda8	0.0037201438
4	0xbe86aea4	-0.26305115
5	0xbc065186	-0.008198148
6	0xbd4ed017	-0.05049142
7	0x3ba6f576	0.005095179
8	0xbd1487cd	-0.036262322
9	0xbc406ca6	-0.011744654
10	0xbc4faf03	-0.012676003
11	0xbdd5c8b0	-0.10438669
12	0xbe7c424a	-0.24634662
13	0xbb1ea94b	-0.0024209793
14	0x3ed03db5	0.4067208
15	0xbe03ed8e	-0.12883589
16	0xbe9509d6	-0.29109067
17	0x3f338cf7	0.7013697
18	0x3e733ada	0.23752919
19	0xbe0c3b9e	-0.13694617
20	0xbe6b18c2	-0.22958663
21	0xbb8d1095	-0.0043049552
22	0xbe1f7b1e	-0.15574309
23	0xbdab75d4	-0.08372083
24	0xbd90435c	-0.07044098
25	0x3f250799	0.6446472
26	0xbe3d4f91	-0.18487383
27	0xbeb78f35	-0.35851446
28	0xbc782841	-0.015146316
29	0xbea6819b	-0.32520756
30	0xbd09e30b	-0.03366379
31	0xbd27d6b5	-0.040976245
32	0x3d76e206	0.060274146
33	0xbef10355	-0.47072855
34	0xbd676a9e	-0.056498162
35	0xba8294a4	-0.0009962511
36	0xbd03419b	-0.032044988
37	0xbc9a1604	-0.018809326
38	0xbd0c9a9f	-0.034327146
39	0xbca83f9a	-0.02053814
40	0xbed53241	-0.41639903
41	0xbe8326aa	-0.25615436
42	0xbc9c7a7b	-0.019101372
43	0x3ebcb02c	0.36853158
44	0x3f370ce3	0.7150404
45	0xbe88b5fc	-0.26701343
46	0xbe12ce6f	-0.1433656
47	0xbd92d942	-0.07170345
48	0xbbd7742d	-0.0065751285
49	0xbdd27c93	-0.10277667
50	0xbe294d0c	-0.16533297
51	0xbdc48ec1	-0.09597541
52	0x3acfe9ac	0.0015862486
53	0xbd210c8b	-0.039318603
54	0x3e93e009	0.28881863
55	0xbe0bd3dd	-0.13655038
56	0xbd01df6f	-0.031707224
57	0x3e9e8f9a	0.30968934
58	0x3bbd89e5	0.0057842606
59	0xbd055ed1	-0.032561127
60	0xbd3e3f7b	-0.04644726
61	0xbd7f3fc9	-0.06231669
62	0xbe91c9f4	-0.2847439
63	0xbd80dffc	-0.06292722

net.3.weight f4 [32, 64]
0	0x3caf0396	0.021364015
1	0xbd8541d8	-0.06506699
2	0x3d4715c2	0.048604734
3	0x3da44bd9	0.08022279
4	0xbd53f9a3	-0.051751744
5	0xbdef798f	-0.11693107
6	0xbd287306	-0.04112532
7	0xbdbb4d0e	-0.091455564
8	0xbd8eead6	-0.06978385
9	0xbe06faf2	-0.13181666
10	0x3dab130e	0.08353244
11	0xbdc32f8d	-0.09530554
12	0xbd901bfd	-0.07036588
13	0xbdcee600	-0.10102463
14	0x3da658d2	0.0812241
15	0xbdc1069a	-0.09425087
16	0xbd3ee625	-0.0466062
17	0xbdf6354b	-0.120218836
18	0x3da3496d	0.07972989
19	0xbc118122	-0.008880885
20	0xbb3b9b86	-0.0028626635
21	0x3d967a7c	0.07347581
22	0xbd922f65	-0.07137946
23	0x3d1c527d	0.038164604
24	0x3c9ad884	0.01890207
25	0x3d912235	0.070866026
26	0xbdb9b210	-0.09067166
27	0x3dae02f6	0.084966585
28	0x3d7e5e31	0.062101547
29	0xbc9d5002	-0.01920319
30	0x3dd3b7a4	0.10337761
31	0x3c6e496a	0.01454387
32	0xbd172ca6	-0.036907814
33	0xbac00ee5	-0.0014652876
34	0x3bda1098	0.00665481
35	0xbdb3d601	-0.087810524
36	0xbe0a2b29	-0.13493027
37	0xbd7ee4bf	-0.062229868
38	0x3cabdcf6	0.020979386
39	0x3d8a621d	0.06756995
40	0x3d232b04	0.039835945
41	0xbe07c76d	-0.13259669
42	0x3db64f38	0.089018285
43	0xbd94fea6	-0.07275133
44	0xbda8ccf5	-0.082422175
45	0xbddbe66d	-0.107373096
46	0x3e180140	0.14844227
47	0x3df31786	0.11869721
48	0xbddefe32	-0.10888328
49	0xbd503393	-0.050830435
50	0xbd88fff4	-0.06689444
51	0xbe0a54af	-0.13508867
52	0xbcf65f7a	-0.030074824
53	0x3daad8c8	0.08342129
54	0xbdc59358	-0.09647244
55	0x3d1d57fb	0.038413983
56	0x3deb4170	0.114870906
57	0x3c8cf71e	0.017207678
58	0xbcec9824	-0.02888114
59	0x3dcc0868	0.09962541
60	0x3d81d164	0.06338766
61	0x3c6243bd	0.013810095
62	0xbdbddc16	-0.09270494
63	0x3dae7ac7	0.08519512
64	0xbe00ab3c	-0.1256532
65	0xbc7a6d5d	-0.015284863
66	0xbdf4eecc	-0.119596094
67	0xbe104c5b	-0.14091627
68	0x3c89fb1c	0.016843371
69	0x3d8aa26d	0.067692615
70	0xbdb26de4	-0.08712366
71	0xbddd102f	-0.107941024
72	0xbdd13485	-0.102150954
73	0x3d482d87	0.048871543
74	0xbd1cc296	-0.03827151
75	0xbdb94eb5	-0.09048215
76	0x3d8ff18d	0.07028494
77	0x3e0960d6	0.13415846
78	0xbe179fed	-0.148071
79	0xbd9aaae1	-0.07552124
80	0x3d80d3e1	0.06290413
81	0xbdb89cb4	-0.09014264
82	0xbde165b5	-0.11005727
83	0xbe06763d	-0.13131042
84	0x3cbb7fe7	0.022888137
85	0x3dae9347	0.08524185
86	0xbe19be4c	-0.15013999
87	0xbd6a7dc7	-0.057248857
88	0x3cc7e814	0.024402656
89	0xbda75ece	-0.081723794
90	0xbd96a7a6	-0.07356195
91	0x3d685437	0.05672094
92	0xbe17e43a	-0.14833155
93	0xbdbdee83	-0.09274008
94	0xbdf8d50f	-0.12150013
95	0xbdedf6ad	-0.11619315
96	0x3abf8e1d	0.0014614497
97	0x3c68df9d	0.01421347
98	0xbdfb5d23	-0.12273624
99	0xbd7cf1b5	-0.061753947
100	0xbd7cfd86	-0.061765216
101	0x3d1d8b89	0.03846315
102	0xbd72755e	-0.05919396
103	0xbd813cea	-0.063104466
104	0x3d3b8be4	0.045787707
105	0xbd1780fd	-0.036988247
106	0xbd588238	-0.05285856
107	0xbd6ca556	-0.057774864
108	0x3d3e9893	0.046532225
109	0x3cce40eb	0.02517744
110	0xbdcf007a	-0.10107513
111	0x3cbbb6b5	0.02291427
112	0xbde5c4fa	-0.11219211
113	0x3d01f450	0.031727135
114	0xb9c6879a	-0.00037866534
115	0xbdab6c57	-0.083702736
116	0xbcc2eb65	-0.023793885
117	0xbde7e6dd	-0.113233306
118	0xbd86fd7d	-0.06591318
119	0xbd9e5443	-0.077309154
120	0xbdfb01fd	-0.122562386
121	0x3c9fc8eb	0.019504985
122	0xbddd9f09	-0.10821349
123	0xbd4e6d4e	-0.05039721
124	0xbd23a35c	-0.039950714
125	0x3d34822d	0.044069458
126	0xbdc7bd43	-0.09752896
127	0xbdba0645	-0.09083227
128	0xbd2cfbf3	-0.042232465
129	0xbd8bcd50	-0.068262696
130	0xbdf63101	-0.120210655
131	0x3dda0e47	0.106472544
132	0x3da15590	0.07877648
133	0x3d646dc7	0.055768754
134	0x3d3d0150	0.04614383
135	0x3bcd6a56	0.0062687797
136	0xbdb4c0c4	-0.088258296
137	0x3b793602	0.0038026576
138	0x3c832a81	0.016011478
139	0x3da9c2a0	0.08289075
140	0xbbd93f67	-0.0066298726
141	0xbe070dba	-0.1318883
142	0xbbbade44	-0.0057027657
143	0x3d8ee354	0.06976953
144	0x3c846ced	0.016165221
145	0xbb9a09c0	-0.0047008693
146	0xbb47278d	-0.0030388564
147	0xbdc7309e	-0.0972607
148	0xbd60989b	-0.054833036
149	0x3d5626d8	0.052283138
150	0xbdf2a2bf	-0.118474476
151	0xbd907d87	-0.070551924
152	0xbcd050ab	-0.02542909
153	0x3dbf0c62	0.09328534
154	0xbdc97e95	-0.09838597
155	0xbd75608a	-0.05990652
156	0xbd366e84	-0.04453899
157	0x3ca4adb1	0.020102354
158	0x3dcb1ebd	0.09917972
159	0xbde135e0	-0.10996604
160	0xbd2401a4	-0.040040627
161	0x3bb10131	0.0054017534
162	0x3db539ef	0.088489406
163	0x3dc8c596	0.098033115
164	0xbd8b7b63	-0.068106435
165	0x3bec5334	0.007212067
166	0xbddc69aa	-0.10762341
167	0xbd8f7f70	-0.07006729
168	0x3ddaaef9	0.10677905
169	0xbccd4512	-0.02505735
170	0x3896c949	7.19005e-05
171	0x3cfff566	0.031244945
172	0xbdd0f141	-0.102022655
173	0x3d472717	0.048621263
174	0xbd9b48b1	-0.07582224
175	0x3dc6b85b	0.09703132
176	0xbd400db0	-0.046888053
177	0x3d269b39	0.040675376
178	0x3cca6516	0.024706405
179	0x3cc7bf98	0.024383351
180	0x3d535274	0.051592305
181	0x3db0b733	0.086286925
182	0xbd431c0e	-0.047634177
183	0x3ba5a88a	0.005055492
184	0x3d79115c	0.06080757
185	0xbe07ab59	-0.13248958
186	0x3b9b5d2b	0.004741331
187	0xbbb9f28e	-0.0056746667
188	0x3c3c17ec	0.011480313
189	0x3d5446de	0.051825397
190	0xbd4cd868	-0.05001107
191	0x3d32e142	0.043671854
192	0x3d09b1e6	0.033616923
193	0x3c2a280a	0.010385523
194	0x3d7007d2	0.058601208
195	0xbe0be6a3	-0.136622
196	0xbcff0ba0	-0.031133473
197	0xbdbad1a7	-0.09122019
198	0xbd77270b	-0.06033997
199	0x3dae9fe0	0.085265875
200	0x3c2fdddd	0.010734049
201	0xbd993550	-0.07480872
202	0x3d533fa9	0.051574383
203	0xbc8c7686	-0.01714636
204	0xbde91fa7	-0.1138299
205	0x3d41fe81	0.047361854
206	0xbde67c79	-0.1125421
207	0xbd9317db	-0.071822844
208	0xbdbdcdad	-0.09267745
209	0x3d838e4e	0.06423627
210	0xbd88bb9a	-0.06676407
211	0xbce090b7	-0.027412755
212	0x3c26410a	0.010147342
213	0x3ddacb10	0.10683262
214	0x3db3cd63	0.08779409
215	0xbdbfcbab	-0.093650185
216	0xbdacc371	-0.08435715
217	0x3d8c7c8b	0.06859692
218	0x3bfe9df9	0.0077702967
219	0xbd16b192	-0.036790438
220	0x3d685b14	0.056727484
221	0xbbaafa67	-0.0052178386
222	0x3d590d32	0.0529911
223	0x3d8b0479	0.067879625
224	0xbdd37e63	-0.10326841
225	0x3d264054	0.04058869
226	0xbdbe9a89	-0.09306819
227	0x3bb21a8e	0.0054352945
228	0x3dab50cf	0.083650224
229	0x3d44feeb	0.04809467
230	0x3a5346b4	0.0008059547
231	0xbc0f4fd7	-0.008747063
232	0xbd990fa6	-0.07473688
233	0xbd78a11e	-0.06070053
234	0xbd0b33ee	-0.03398507
235	0xbdd6cbf3	-0.10488119
236	0xbe1c72e0	-0.15278196
237	0x3d185e84	0.037199512
238	0x3d208185	0.03918602
239	0x3dd02bb6	0.10164587
240	0x3c1cb4cf	0.0095645925
241	0x3db7ca96	0.08974187
242	0x3de0a1a2	0.10968329
243	0xbdd3531c	-0.10318586
244	0xbdfc9368	-0.12332803
245	0xbd163b63	-0.03667773
246	0xbd88cfd7	-0.06680267
247	0xbd882565	-0.066477574
248	0xbcafba4c	-0.021451138
249	0x3c8b9141	0.017037036
250	0xbdade389	-0.084906645
251	0x3c96be6c	0.018401347
252	0xbc773cd7	-0.015090189
253	0xbd83faf6	-0.064443514
254	0xbd15b785	-0.03655197
255	0x3d8e3092	0.06942858

net.3.bias f4 [32]
0	0xbd97ed1c	-0.07418272
1	0x3ed25897	0.41083214
2	0xbe2a185b	-0.16610853
3	0x3e6098ff	0.21933363
4	0x3cf035a9	0.029322462
5	0x3e9ac825	0.30230823
6	0x3ed177e1	0.40911773
7	0x3cf88995	0.030339042
8	0x3d823148	0.06357056
9	0x3c7895ca	0.015172431
10	0xbe870759	-0.26372793
11	0xbe730ce9	-0.23735394
12	0x3e595c2d	0.21226569
13	0x3e311a50	0.17295194
14	0xbe471851	-0.1944287
15	0x3f08adae	0.53390014
16	0xbd944f65	-0.07241706
17	0x3e13a31d	0.14417692
18	0xbda2adb8	-0.079432905
19	0xbcc15c57	-0.023603601
20	0x3e77ef80	0.24212456
21	0x3ed714c4	0.4200803
22	0x3c7ce609	0.015435704
23	0x3ed57600	0.4169159
24	0xbf0cfd7c	-0.55074286
25	0x3f04f029	0.51928955
26	0xbed58ce4	-0.41709054
27	0x3f23eab6	0.64030015
28	0x3d82231f	0.06354355
29	0xbdb011ba	-0.08597131
30	0xbeb3c6e5	-0.35112682
31	0xbe5761e9	-0.21033444

net.6.weight f4 [16, 32]
0	0x3ba03d17	0.004890095
1	0xbd1e4ddc	-0.03864847
2	0xbe0211d3	-0.12702112
3	0x3d796d03	0.060894977
4	0x3e0a6aea	0.13517347
5	0xbce0f5ad	-0.027460897
6	0xbd34fc23	-0.04418577
7	0x3d0911fa	0.03346441
8	0xbe6d6078	-0.23181331
9	0xbd9f0781	-0.07765103
10	0xbe087194	-0.13324577
11	0x3c8480b0	0.016174644
12	0x3e56400a	0.20922866
13	0x3dc2150c	0.094766706
14	0xbe17cc21	-0.14823963
15	0x3df5754a	0.11985262
16	0xbe73c2ff	-0.23804854
17	0xbcf13bdd	-0.02944749
18	0xbe463098	-0.19354475
19	0xbe3be234	-0.18348008
20	0x3d9fb313	0.077978276
21	0xbd5c1203	-0.053728115
22	0x3d3c7317	0.046008196
23	0xbcd630b7	-0.026146276
24	0x3d02ba8c	0.031916186
25	0x3d704f5b	0.05866943
26	0xbcf49167	-0.02985449
27	0x3d325226	0.043535374
28	0x3ac0ede3	0.0014719333
29	0x3ad9b382	0.0016609284
30	0xbe35632d	-0.17713614
31	0x3ce613fc	0.028085701
32	0x3d9b19e6	0.07573299
33	0x3e093f99	0.13403167
34	0xbd4272c5	-0.047472734
35	0xbdd1009d	-0.10205195
36	0x3da26b5c	0.079306334
37	0x3d14bf80	0.03631544
38	0x3ccc1c46	0.024915826
39	0x3b789209	0.003792884
40	0x3c15be9c	0.009139683
41	0x3db8d69b	0.09025308
42	0x3d941e8a	0.07232387
43	0xb9fc9daa	-0.00048182654
44	0x3d7a726e	0.061144285
45	0x3c161cc2	0.00916213
46	0xbe1c39ac	-0.15256375
47	0xbc12ce79	-0.00896036
48	0x3cb1571c	0.021647982
49	0x3e0776fc	0.13228983
50	0xbd9fec2d	-0.07808719
51	0xbd3cb9ba	-0.04607556
52	0xbd5d9b66	-0.054103278
53	0xbd950e71	-0.07278145
54	0xbe03e1d7	-0.1287912
55	0x3dd20ad7	0.10255974
56	0xbc2fdefa	-0.010734314
57	0xbd8a8258	-0.06763142
58	0xbdaf5b45	-0.0856233
59	0xbdb212f4	-0.08695021
60	0xbe241f7f	-0.1602764
61	0x3dd9213a	0.106020406
62	0x3d10a333	0.03531189
63	0xbd9ab4f0	-0.07554042
64	0xbe659a88	-0.2242223
65	0x3b9a2e05	0.004705193
66	0x3d92e2a4	0.071721345
67	0xbd634fec	-0.05549614
68	0xbdd2cb00	-0.102926254
69	0xbdd073b6	-0.1017832
70	0xbd55e562	-0.05222071
71	0xbb358507	-0.0027697699
72	0x3daf463d	0.08558319
73	0xbe0d3039	-0.13787927
74	0xbc7a604c	-0.015281748
75	0x3d2b362d	0.041799713
76	0xbe1b64bd	-0.15175147
77	0xbe0b76ca	-0.13619533
78	0xbd16b687	-0.036795165
79	0xbd2c3082	-0.04203845
80	0xbe1c86bb	-0.1528577
81	0xbd67d0f6	-0.056595765
82	0xbdc06b5e	-0.09395479
83	0x3d9dcf47	0.07705551
84	0xbca3154a	-0.019907612
85	0xbda54204	-0.08069232
86	0x3e0c07a8	0.13674796
87	0xbe4e677e	-0.20156667
88	0xbdd0fd78	-0.10204595
89	0x3e3c9d86	0.18419465
90	0xbe339797	-0.17538296
91	0x3d59bdb0	0.053159416
92	0xbe32691a	-0.17422906
93	0x3e091b84	0.13389403
94	0x3c6c62c3	0.0144278435
95	0xbe1836f6	-0.14864716
96	0xbbc61ec9	-0.0060461503
97	0x3d7c9bf6	0.061672173
98	0x3dc21008	0.09475714
99	0x3ddc88e9	0.10768301
100	0xbd937f2d	-0.07201991
101	0x3e1b0db5	0.15141948
102	0xbd220e24	-0.039564267
103	0x3d95d785	0.07316498
104	0xbe13294f	-0.14371227
105	0x3c29a219	0.0103535885
106	0xbdf5775f	-0.11985659
107	0xbe28cf81	-0.16485406
108	0x3cab518e	0.020912912
109	0x3bd5f5cf	0.006529547
110	0xbe108aad	-0.141154
111	0x3cabd638	0.02097617
112	0x3c9335d8	0.01797001
113	0x3e43135b	0.19050352
114	0xbd706e39	-0.058698867
115	0x3e00b588	0.12569249
116	0x3dc08b25	0.0940154
117	0xbe255dd6	-0.16149077
118	0x3d0c96dc	0.03432356
119	0x3dd4a886	0.10383706
120	0xbe55f639	-0.20894708
121	0x3db1a5e3	0.086742185
122	0x3c1849e8	0.009294964
123	0xbc74e753	-0.01494773
124	0x3d9f8d93	0.07790675
125	0xbddf68ab	-0.10908636
126	0xbd1b81e0	-0.037965655
127	0x3d58d48b	0.05293707
128	0xbdee6c9c	-0.11641809
129	0xbe131af0	-0.14365745
130	0xbd825bd8	-0.06365174
131	0xbd8ec396	-0.06970899
132	0xbcf9c830	-0.030490965
133	0x3d0b538d	0.034015227
134	0xbe40e8af	-0.18838762
135	0x3da85460	0.08219218
136	0xbdb934a8	-0.090432465
137	0x3da40e5b	0.080105506
138	0xbc097c06	-0.008391386
139	0xbd502209	-0.05081371
140	0xbb08d5da	-0.0020879419
141	0xbe066025	-0.13122614
142	0x3d2f7f6d	0.042846132
143	0x3ca059fc	0.019574158
144	0xbc00d976	-0.007864347
145	0x3d84bb10	0.06480992
146	0xbd91230b	-0.07086762
147	0xbd2465ed	-0.040136266
148	0x3e090e4f	0.13384365
149	0xbde8e6de	-0.113721594
150	0x3e06bbe1	0.13157608
151	0xbd80805c	-0.062744826
152	0xbdfd0a19	-0.123554416
153	0x3d42184b	0.04738645
154	0xbe060a18	-0.13089788
155	0x3e03ffaa	0.12890497
156	0x3db496a4	0.08817795
157	0x3dd09dd7	0.101863556
158	0xbd578ae6	-0.0526227
159	0xbe4631d8	-0.19354951
160	0x3c8b2a1b	0.01698785
161	0x3d99c4f1	0.07508267
162	0xbd4afa14	-0.0495549
163	0x3da3a6f8	0.07990831
164	0xbd91f930	-0.07127607
165	0x3db79bec	0.089652866
166	0x3dc9598b	0.09831532
167	0xbc610bc0	-0.013735712
168	0xbe089388	-0.13337529
169	0x3dcb81bc	0.09936854
170	0x3d8edac0	0.06975317
171	0xbd2ae542	-0.041722544
172	0x3d96a79e	0.07356189
173	0x3c26fe32	0.010192441
174	0x3e0b683e	0.13613984
175	0xbb0449d0	-0.0020185597
176	0xbddad523	-0.10685184
177	0x3d003c84	0.031307712
178	0xbe09dfe9	-0.13464321
179	0xbe177845	-0.14791973
180	0x3e177167	0.14789353
181	0xbe0ca15c	-0.13733429
182	0x3add0277	0.0016861696
183	0x3e149416	0.14509615
184	0xbdc87e55	-0.09789721
185	0xbc3e630c	-0.011620294
186	0x3c4a02aa	0.012329737
187	0xbdb6791d	-0.08909819
188	0xbcf3c2c0	-0.02975595
189	0xbcb1c510	-0.021700412
190	0xbd5f986f	-0.05458873
191	0x3c03ddfc	0.008048531
192	0x3d036175	0.032075364
193	0xbe225706	-0.1585351
194	0xbdc623ca	-0.09674795
195	0x3ce4a45f	0.02791041
196	0x3d73857b	0.05945347
197	0x3e1a6ac6	0.15079793
198	0x3db74ba7	0.089499764
199	0xbd42113e	-0.047379725
200	0xbbde0469	-0.006775428
201	0x3d9258c1	0.07145835
202	0xbd710a29	-0.05884758
203	0xbd2cf0b6	-0.042221747
204	0x3d6ce652	0.057836838
205	0x3d116fe3	0.035507094
206	0xbd80f16b	-0.06296047
207	0xbc7071e5	-0.014675592
208	0xbe69ceaf	-0.2283275
209	0xbe0c350b	-0.1369211
210	0xbe3289b7	-0.17435347
211	0x3e0f99a2	0.1402345
212	0x3d8ca2b6	0.06866972
213	0xbe321831	-0.17392041
214	0xbd9b308f	-0.07577621
215	0x3de1a464	0.11017683
216	0xbd9be4df	-0.07612013
217	0x3d71fcc9	0.059078965
218	0xbc95039d	-0.0181902
219	0xbd825235	-0.06363336
220	0x3d14b83e	0.03630852
221	0xbdbcc56f	-0.09217345
222	0xbe1c2ebb	-0.15252201
223	0x3c6ac83a	0.014329964
224	0x3deec0a8	0.1165784
225	0xbe258955	-0.1616567
226	0xbe1ef2b4	-0.15522271
227	0xbcd05dc2	-0.025435332
228	0xbc74536a	-0.014912466
229	0xbe354609	-0.17702498
230	0xbe1c8d5b	-0.15288298
231	0x3cd37fca	0.02581777
232	0xbe1690c8	-0.14703667
233	0xbe44dcf3	-0.1922491
234	0xbdf7dd22	-0.121027246
235	0xbe2c93df	-0.16853283
236	0x3d4795af	0.048726734
237	0xbdab2cbd	-0.083581425
238	0x3dc20b0c	0.09474763
239	0xbd08cbb6	-0.0333974
240	0x3d367066	0.044540785
241	0x3d53b75e	0.051688544
242	0xbd129ae1	-0.035792235
243	0xbe1c76af	-0.15279649
244	0x3d1c0b78	0.038096875
245	0xbe0e8d41	-0.13921072
246	0x3dc6a575	0.09699527
247	0xbe18b1e7	-0.14911614
248	0xbd44cdf2	-0.048047967
249	0xbba9af75	-0.005178387
250	0xbdba6cd6	-0.0910279
251	0x3d235c7d	0.039883126
252	0x3b54bbd5	0.003246059
253	0xbd43d4a3	-0.047810208
254	0x3d2550b6	0.040360175
255	0xbd6169bd	-0.05503248

net.6.bias f4 [16]
0	0x3ee8dd32	0.4548126
1	0x3ea55ed8	0.32298923
2	0x3dd5831d	0.104253985
3	0x3ef2864c	0.47368085
4	0xbe275138	-0.16339576
5	0x3f13afd0	0.57690144
6	0x3d91af29	0.07113487
7	0xbd44a379	-0.048007462
8	0x3ee7e72a	0.45293552
9	0xbe1a3e56	-0.15062842
10	0x3ee2be82	0.4428597
11	0xbd82ecfb	-0.06392857
12	0xbd443ae7	-0.047907736
13	0x3ea0e73e	0.31426424
14	0xbe29ed03	-0.16594319
15	0xbe307bf4	-0.17234784

net.9.weight f4 [8, 16]
0	0xbe495790	-0.19662309
1	0xbe6bde7d	-0.23034091
2	0x3e1bd005	0.15216072
3	0xbdfab1a1	-0.12240911
4	0xbe401383	-0.18757443
5	0xbe9276fa	-0.28606397
6	0xbe8edbb1	-0.27901986
7	0x3d3f921a	0.046770193
8	0x3e807a39	0.25093248
9	0x3df3f821	0.11912561
10	0x3e71e6ac	0.2362315
11	0xbe50a1da	-0.20374241
12	0x3e4ccdaf	0.20000337
13	0x3e5df627	0.21675931
14	0x3c923902	0.017849449
15	0xbe0d23e7	-0.13783227
16	0x3d9238fd	0.07139776
17	0x3dc10bbf	0.094260685
18	0xbd990b39	-0.07472844
19	0x3e0ad6c0	0.13558483
20	0xbd438d0c	-0.047741935
21	0x3da9067b	0.08253189
22	0x3e0595c1	0.13045408
23	0xbcd27ce2	-0.025694314
24	0x3dca93ac	0.098914474
25	0xbde26ae8	-0.11055547
26	0x3e40f600	0.18843842
27	0x3d85c89e	0.06532405
28	0x3e4c59bd	0.19956107
29	0xbdbd9bda	-0.09258242
30	0xbc96d95e	-0.018414196
31	0x3d31c441	0.043400053
32	0x3d8328db	0.06404277
33	0x3db9f563	0.09080007
34	0xbe0815f1	-0.1328962
35	0x3e0fb98c	0.14035624
36	0xbe3217d5	-0.17391904
37	0x3d8973d3	0.06711545
38	0x3dcad63a	0.09904142
39	0x3d9f01df	0.07764029
40	0x3d2095ab	0.039205234
41	0xbdf13508	-0.11777693
42	0x3e2b0259	0.16700114
43	0xbbf9f903	-0.0076285615
44	0x3e52e11c	0.20593685
45	0xbd958931	-0.07301558
46	0x3e0cab23	0.13737158
47	0x3dee8b94	0.11647716
48	0x3d8c5d6f	0.068537585
49	0x3e45e4ea	0.19325605
50	0xbd449914	-0.04799755
51	0x3dfa4120	0.12219453
52	0xbded7997	-0.11595457
53	0x3da92b3b	0.08260199
54	0x3e141570	0.14461303
55	0xbd94af0e	-0.072599515
56	0x3d642e73	0.05570836
57	0xbe292062	-0.1651626
58	0x3d0e88b4	0.03479834
59	0xbd8f0cc8	-0.0698486
60	0xbe33c3c3	-0.17555146
61	0xbe21d3fc	-0.15803522
62	0x3e0acbbd	0.13554282
63	0x3e404481	0.18776132
64	0x3d9170d1	0.07101596
65	0xbb2094c2	-0.002450273
66	0xbe044586	-0.12917146
67	0x3dffc4c0	0.12488699
68	0x3e5f9cfe	0.21837232
69	0x3d6bbb1d	0.057551492
70	0x3e1da5d4	0.1539529
71	0x3d99faf4	0.07518569
72	0xbe922450	-0.2854333
73	0x3df8e3b0	0.12152803
74	0x3dba8a3c	0.09108397
75	0x3db5b5a8	0.08872539
76	0x3d03f902	0.032219894
77	0xbdd05000	-0.10171509
78	0xbe862487	-0.26199743
79	0x3cfc9bf1	0.030836077
80	0x3d533700	0.051566124
81	0x3e223107	0.15839015
82	0xbe0fd4d0	-0.14046025
83	0x3df094b3	0.11747112
84	0xbe1cf9df	-0.15329693
85	0x3d5b42a3	0.053530347
86	0x3d06d083	0.032913696
87	0x3da23cd4	0.07921758
88	0x3dc1af58	0.09457272
89	0x3df4e1da	0.1195714
90	0x3dbd1b46	0.092337176
91	0xbd209636	-0.039205752
92	0xbe2b5a6b	-0.1673371
93	0xbd8c0f9a	-0.06838913
94	0x3e2f56f0	0.17123008
95	0xbe0d51a0	-0.13800669
96	0xbe84ec79	-0.25961664
97	0x3def15aa	0.11674054
98	0xbdef1127	-0.116731934
99	0xbe9052f4	-0.28188288
100	0xbe443768	-0.19161761
101	0xbea33c06	-0.31881732
102	0xbdf235a0	-0.118266344
103	0xbd62d270	-0.05537647
104	0xbeb850a5	-0.35999027
105	0xbe15d129	-0.1463057
106	0xbe3efa50	-0.18650174
107	0xbe7959a5	-0.24350603
108	0xbe1e5dd9	-0.15465488
109	0xbee2b121	-0.44275764
110	0x3e27d14d	0.16388436
111	0xbe287316	-0.16450152
112	0xbc376155	-0.011192639
113	0xbdb05318	-0.08609599
114	0xbd91db74	-0.071219355
115	0x3c1c3e88	0.009536393
116	0x3c8ccbc4	0.017187007
117	0xbd960411	-0.07324994
118	0x3d9e5ec8	0.07732922
119	0x3d72a3f9	0.059238408
120	0xbe5b9246	-0.21442518
121	0x3c9a0437	0.018800838
122	0xbe1d5a10	-0.15366387
123	0xbd7f04a5	-0.06226029
124	0x3e3e5435	0.1858681
125	0xbe3da76e	-0.185209
126	0x3d4cd178	0.050004452
127	0x3def7a0e	0.11693202

net.9.bias f4 [8]
0	0xbd9e4124	-0.07727268
1	0x3f0c9e99	0.549295
2	0x3e717916	0.23581347
3	0x3d0f3ea1	0.034971837
4	0xbe43d36f	-0.19123624
5	0xbd54dbe4	-0.051967517
6	0xbf04f09b	-0.51929635
7	0xbf0d1580	-0.5511093
