ANN_MLP/model.pt (torch, 6409 bytes, 3 tensors)

net.0.weight f4 [256, 2]
0.033857398 0.23344488 -0.49945712 0.6503375 0.4851393 -0.6670687 0.66841334 0.01892383
-0.32895046 -0.4934659 0.1381516 -0.029124184 -0.5165392 0.7100054 -0.6082977 0.6474899
-0.22224024 -0.31717846 -0.46525756 -0.6141128 0.06785977 -0.20139934 0.059174173 0.5424577
-0.13319728 0.13836193 0.020436093 -0.079147786 -0.29919812 -0.54682416 -0.46586516 0.49156544
0.64292926 0.62182593 0.41750818 -0.23851353 -0.6957085 0.41665488 0.0668925 0.11771026
-0.58745444 0.12663195 -0.6588213 0.3814744 -0.13932177 0.21301876 0.60657007 -0.004378547
0.3232936 0.10303862 0.27786395 0.5189794 -0.21901482 0.50092053 -0.16591883 0.3670258
0.7148194 0.15727173 0.22415401 -0.5016612 -0.21636686 -0.5996683 0.2918651 0.7315539
0.4907244 0.5987918 -0.42252323 0.14700231 0.6861618 -0.58983994 0.39640856 0.64892346
-0.0075602215 -0.6886292 0.56598175 0.1755776 0.1403137 0.45112303 -0.271564 0.48972028
0.55490077 0.59519506 0.06840735 0.2513907 -0.5910476 0.6871606 -0.67436427 0.19578627
-0.016049933 0.14655823 -0.29753193 0.4076666 -0.4586809 0.24555275 -0.37732664 0.023133239
0.5775142 -0.70730203 -0.42963183 0.09835211 0.11089048 0.17671524 -0.30483517 -0.49529657
0.5369156 0.00065740664 0.16993326 -0.20807488 0.43019712 -0.025197944 -0.27471668 -0.61847717
0.63380903 0.38312072 0.36829594 0.1731659 -0.6174904 -0.21997055 0.6244747 0.07093182
0.42366093 0.27150613 0.38786578 0.7213874 0.47653747 0.5829314 -0.4146765 -0.17222421
-0.2669696 0.65614444 0.46315905 -0.61870104 -0.40774778 -0.6610148 0.7000301 -0.6659015
0.56409377 0.66690737 0.40221113 -0.45603257 0.13477266 0.58330923 0.41526636 -0.7153596
0.41314942 0.22137369 0.6827765 0.5598043 0.3957866 0.3389042 -0.5677318 -0.33290297
-0.031747304 -0.29092538 -0.6236976 0.5385831 -0.4839661 -0.28854966 -0.034587994 -0.67202604
0.33951244 -0.012334368 -0.28495714 0.24075776 -0.5439343 -0.57361925 -0.037301518 -0.023996996
0.22054358 -0.1118937 0.4791342 -0.35425556 0.12126719 0.119258925 0.13737153 0.6931974
-0.43819046 -0.7063601 0.15998916 -0.46965978 0.35807684 -0.23424226 0.4329249 0.13729317
-0.4678695 0.056721624 -0.15605766 -0.46013662 0.117164455 -0.41122553 0.517682 0.06417533
-0.05736357 -0.39965293 -0.1700956 -0.3754516 0.67097026 0.6202312 0.44662768 -0.5033314
-0.5921912 -0.64962643 0.09029071 -0.18873379 -0.63754344 -0.20551549 -0.5296326 0.010380067
0.586166 -0.44952744 0.25747368 -0.5417205 -0.48195472 -0.25757757 0.6701565 0.15137024
0.44081938 -0.3429314 -0.6277364 -0.003701336 0.49153674 0.40435857 0.2709634 0.46450645
-0.31803373 -0.4560087 -0.4546869 0.4506784 0.32449588 -0.086804666 0.23553988 0.14652821
-0.7241858 -0.3695812 0.508924 -0.027990814 -0.5043775 -0.29599264 -0.19830728 -0.58554685
0.4179756 -0.14734817 0.58217585 -0.30501854 -0.23137018 -0.3521048 -0.047515046 0.32667282
-0.008110593 -0.2601226 -0.45848942 -0.6085761 0.1473977 -0.37302434 -0.32381487 -0.25424835
00000000: 0eae 0a3d 2d0c 6f3e d8b8 ffbe 857c 263f
00000010: 2e64 f83e 04c5 2abf 231d 2b3f 2606 9b3c
00000020: 326c a8be 90a7 fcbe 9d77 0d3e d795 eebc
00000030: ea3b 04bf eac2 353f 66b9 1bbf e6c1 253f
00000040: f292 63be 3765 a2be 3d36 eebe 7f36 1dbf
00000050: 10fa 8a3d a13b 4ebe 9e60 723d 82de 0a3f
00000060: de64 08be c0ae 0d3e 9869 a73c 3c18 a2bd
00000070: 7f30 99be abfc 0bbf e185 eebe 77ae fb3e
00000080: 0397 243f fc2f 1f3f a2c3 d53e e43c 74be
00000090: f419 32bf ca53 d53e effe 883d 1412 f13d
000000a0: 6a63 16bf ceab 013e 83a8 28bf 9d50 c33e
000000b0: 5eaa 0ebe 9721 5a3e 2d48 1b3f ea79 8fbb
000000c0: bd86 a53e e905 d33d 2f44 8e3e d5db 043f
000000d0: 6c45 60be 543c 003f a0e6 29be ceea bb3e
000000e0: 67fe 363f d70b 213e a188 653e de6c 00bf
000000f0: 468f 5dbe dd83 19bf 586f 953e 1e47 3b3f
00000100: 3b40 fb3e 6b4a 193f f754 d8be c687 163e
00000110: 4da8 2f3f c0ff 16bf 10f6 ca3e d91f 263f
00000120: bcbb f7bb 014a 30bf 2ee4 103f 9dca 333e
00000130: 65ae 0f3e 99f9 e63e 700a 8bbe 9ebc fa3e
00000140: fa0d 0e3f b45e 183f 2719 8c3d 48b6 803e
00000150: e54e 17bf c2e9 2f3f 23a3 2cbf 327c 483e
00000160: 267b 83bc 5c13 163e 1b56 98be adb9 d03e
00000170: 39d8 eabe 2e72 7b3e f530 c1be eb81 bd3c
00000180: f8d7 133f bf11 35bf b4f8 dbbe d56c c93d
00000190: 8c1a e33d d7f4 343e 5b13 9cbe 8397 fdbe
000001a0: 4d73 093f d055 2c3a fc02 2e3e 9511 55be
000001b0: cc42 dc3e eb6b cebc aaa7 8cbe 8554 1ebf
000001c0: 4f41 223f 6628 c43e 4991 bc3e 6752 313e
000001d0: da13 1ebf f63f 61be 93dd 1f3f b444 913d
000001e0: 16ea d83e da02 8b3e 5896 c63e d8ac 383f
000001f0: b8fc f33e fe3a 153f 7a50 d4be 8b5b 30be
00000200: 3db0 88be 15f9 273f 2f23 ed3e 3163 1ebf
00000210: 51c4 d0be 4438 29bf 2c35 333f 8578 2abf
00000220: 7368 103f 71ba 2a3f 9eee cd3e 1a7d e9be
00000230: d801 0a3e c153 153f cb9d d43e cf21 37bf
00000240: 5288 d33e c9af 623e 71ca 2e3f 564f 0f3f
00000250: 8ba4 ca3e da84 ad3e df56 11bf 4272 aabe
00000260: 7609 02bd 2cf4 94be a5aa 1fbf 95e0 093f
00000270: 68ca f7be c8bc 93be 24ac 0dbd e609 2cbf
00000280: 93d4 ad3e 1716 4abc e7e5 91be 3489 763e
00000290: 473f 0bbf b6d8 12bf 7ac9 18bd 5995 c4bc
000002a0: 2dd6 613e 8628 e5bd 1451 f53e fc60 b5be
000002b0: ef5a f83d 063e f43d 1fab 0c3e 6375 313f
000002c0: 805a e0be 04d4 34bf 33d4 233e 3f77 f0be
000002d0: d955 b73e 34dd 6fbe 55a8 dd3e 9596 0c3e
000002e0: 978c efbe ef54 683d 94cd 1fbe 0797 ebbe
000002f0: ebf3 ef3d 278c d2be cf86 043f 5b6e 833d
00000300: 10f6 6abd 4f9f ccbe 8a2d 2ebe 313b c0be
00000310: b5c4 2b3f 79c7 1e3f 62ac e43e 54da 00bf
00000320: d899 17bf eb4d 26bf 56ea b83d 6e43 41be
00000330: 0c36 23bf a772 52be 0196 07bf 2811 2a3c
00000340: fa0e 163f 7628 e6be 97d3 833e 32ae 0abf
00000350: c5c2 f6be 35e1 83be 608f 2b3f cd00 1b3e
00000360: 14b3 e13e b494 afbe 55b3 20bf 1d92 72bb
00000370: b4aa fb3e 1608 cf3e b7bb 8a3e cad3 ed3e
00000380: 51d5 a2be f979 e9be b9cc e8be 52bf e63e
00000390: 5324 a63e a5c6 b1bd 5e31 713e 7e0b 163e
000003a0: 3e64 39bf bf39 bdbe d848 023f fe4c e5bc
000003b0: e21e 01bf 598c 97be 1011 4bbe 66e6 15bf
000003c0: e600 d63e 70e2 16be 7a09 153f 642b 9cbe
000003d0: 4eec 6cbe 1547 b4be 239f 42bd a941 a73e
000003e0: 4be2 04bc ca2e 85be 20bf eabe a5cb 1bbf
000003f0: 6cef 163e 0cfd bebe 10cb a5be d72c 82be

net.0.bias f4 [256]
0.014704458 -0.17880979 0.64946645 0.09133951 0.60842025 0.6398855 0.5857132 0.3641682
0.25583813 0.7273869 0.6068378 -0.45770735 -0.448324 0.34062776 0.09368815 -0.45433253
-0.40747175 0.306438 -0.6876002 0.5194211 -0.4160324 0.008463558 0.11017416 0.5900207
-0.17016721 -0.62308925 0.68464625 -0.6559264 0.7172983 -0.37069583 0.6575056 0.4657029
-0.11773761 0.6196943 -0.26442948 -0.61945885 -0.52710724 -0.2830076 -0.17459889 0.3099388
-0.49004143 -0.39693895 -0.22753814 -0.48259383 -0.70187545 -0.4032667 0.57862526 0.6366237
-0.07365559 -0.53855914 0.59826326 0.29023635 0.15970953 -0.15244803 0.6628752 -0.38824612
0.31115237 0.5746329 0.40528974 0.60928106 -0.00046432455 0.2836655 -0.5678293 -0.3771012
-0.62099147 0.108600974 -0.66793793 -0.28166577 -0.59716463 0.0761943 0.29489857 0.15702906
-0.3305424 0.09856597 -0.044898592 -0.30379766 0.03927594 -0.18137369 -0.38821787 -0.34268305
-0.33478045 -0.452673 -0.1713174 -0.71096027 0.20797805 0.44209513 -0.22105968 -0.2858839
0.3578199 0.44705936 -0.55658466 0.5290021 0.6787646 0.6237194 0.23144868 -0.65797895
-0.40286675 -0.42846835 -0.13035563 -0.011891775 0.05623935 0.45312023 0.7266101 -0.47910392
0.28466263 -0.36940652 0.23758398 0.6970242 -0.34069455 0.6691386 -0.5170884 -0.59344774
-0.5836539 0.07552949 -0.25442976 0.473286 -0.65306 -0.21820325 -0.27254674 0.22067344
0.5932747 0.018337421 0.00991001 -0.53704673 -0.19222966 0.6312719 -0.3799768 0.24300449
0.46572617 -0.33139965 0.0033062852 -0.15533793 -0.44314185 0.4902711 -0.15291825 0.25834635
-0.328083 0.3538522 -0.21621066 0.44559267 0.16243732 -0.5795868 -0.3935622 -0.6305976
-0.22837688 -0.05347252 -0.44961712 -0.4811582 0.42534494 0.010319291 0.48116818 -0.11340788
0.2230632 0.23993269 -0.34507796 -0.42159772 0.5652782 0.10337911 -0.1434783 -0.067773275
-0.00045679897 0.23992851 0.048787087 0.6304619 -0.4251529 0.5935958 -0.3025798 -0.18371975
0.10626928 -0.072050996 -0.42699143 0.38440403 -0.08409789 0.48607704 0.46449965 -0.5608225
0.64459956 -0.108353294 -0.029873244 0.4159027 0.65330654 0.56229657 -0.69328743 0.56432194
-0.1398129 -0.034100592 0.6224526 0.11201323 0.3936549 -0.37129182 -0.61745566 -0.5832903
-0.09348247 -0.40360305 -0.39781654 -0.10446089 -0.21179126 0.3254988 -0.07539246 -0.63673365
0.40542066 0.49089888 -0.5677091 0.5121688 0.13961212 -0.7071427 -0.4765109 -0.088938065
0.3252332 -0.3827472 -0.050691374 -0.12327489 0.2581248 0.21423796 -0.54154956 0.18341763
-0.030255603 0.63908917 0.24753737 0.38641784 -0.5300301 -0.10122789 0.60404575 0.67599654
0.21184474 -0.52693707 0.31402227 0.32229272 0.3880959 0.17482412 0.40750203 0.36174074
0.53316146 -0.62292856 0.4843937 0.16282088 -0.024237324 0.3968854 -0.58670104 -0.2427083
0.45877355 -0.33966887 0.4715797 0.4341708 0.2509876 0.24607612 0.15322892 -0.24039535
-0.614109 -0.061929565 0.52997506 -0.60040474 -0.41070974 -0.5350798 0.049490914 -0.6068693
00000000: f8ea 703c ea19 37be 6f43 263f 3610 bb3d
00000010: 6ec1 1b3f 89cf 233f 4df1 153f 4174 ba3e
00000020: 37fd 823e 0736 3a3f b959 1b3f 9e58 eabe
00000030: b98a e5be c366 ae3e 93df bf3d 469e e8be
00000040: 23a0 d0be 71e5 9c3e 9106 30bf c8f8 043f
00000050: 3302 d5be bcaa 0a3c fda2 e13d 990b 173f
00000060: 5040 2ebe c782 1fbf fa44 2f3f cbea 27bf
00000070: dda0 373f d8cb bdbe 4952 283f 9c70 ee3e
00000080: 6b20 f1bd 49a4 1e3f 4d63 87be db94 1ebf
00000090: 80f0 06bf 5fe6 90be 0dca 32be 4cb0 9e3e
000000a0: b6e6 fabe 953b cbbe c2ff 68be 8a16 f7be
000000b0: 1cae 33bf f978 cebe c920 143f c5f9 223f
000000c0: bed8 96bd 03df 09bf c827 193f dc99 943e
000000d0: e58a 233e 561b 1cbe 30b2 293f 32c8 c6be
000000e0: 5d4f 9f3e 241b 133f 2382 cf3e d8f9 1b3f
000000f0: 9670 f3b9 9b3c 913e 435d 11bf 6913 c1be
00000100: 4cf9 1ebf 306a de3d fbfd 2abf 7f36 90be
00000110: c8df 18bf c20b 9c3d f2fc 963e 3acc 203e
00000120: da3c a9be f5dc c93d 96e7 37bd 5e8b 9bbe
00000130: cfdf 203d 06ba 39be 7ec4 c6be 2774 afbe
00000140: 5868 abbe c1c4 e7be d46d 2fbe 7e01 36bf
00000150: 33f8 543e 4b5a e23e 785d 62be 605f 92be
00000160: 2c34 b73e f7e4 e43e 557c 0ebf ae6c 073f
00000170: 84c3 2d3f 13ac 1f3f e200 6d3e 4f71 28bf
00000180: 8d44 cebe 3460 dbbe f27b 05be b8d5 42bc
00000190: 3c5b 663d 60ff e73e 1f03 3a3f 1c4d f5be
000001a0: 4dbf 913e da22 bdbe 3749 733e 2e70 323f
000001b0: 846f aebe ab4c 2b3f e85f 04bf 31ec 17bf
000001c0: 586a 15bf 35af 9a3d 9e44 82be 8b52 f23e
000001d0: f12e 27bf ac70 5fbe 3f8b 8bbe 38f8 613e
000001e0: dae0 173f 5c38 963c 985d 223c e57b 09bf
000001f0: dad7 44be 099b 213f 528c c2be 2bd6 783e
00000200: a973 ee3e 37ad a9be 43ae 583b e810 1fbe
00000210: 7de3 e2be d004 fb3e 9a96 1cbe f945 843e
00000220: 7ffa a7be 1e2c b53e 5466 5dbe b924 e43e
00000230: f855 263e cd5f 14bf fc80 c9be d86e 21bf
00000240: a1db 69be 0006 5bbd 3734 e6be 5e5a f6be
00000250: d0c6 d93e 3e12 293c ad5b f63e 6442 e8bd
00000260: ae6a 643e eab0 753e 0fae b0be a8db d7be
00000270: 12b6 103f 6db8 d33d faeb 12be b7cc 8abd
00000280: 857e efb9 d2af 753e f8d4 473d f365 213f
00000290: a4ad d9be e5f5 173f bdeb 9abe 0821 3cbe
000002a0: b5a3 d93d 798f 93bd 9f9e dabe 9bd0 c43e
000002b0: 843b acbd 17df f83e e6d2 ed3e 1092 0fbf
000002c0: 7a04 253f 55e8 ddbd bcb8 f4bc 33f1 d43e
000002d0: 193f 273f abf2 0f3f 497b 31bf 6777 103f
000002e0: 1d2b 0fbe 10ad 0bbd 0e59 1f3f 3167 e53d
000002f0: 238d c93e f619 bebe 9311 1ebf 8352 15bf
00000300: bd73 bfbd 0fa5 cebe 9cae cbbe 97ef d5bd
00000310: cfdf 58be c7a7 a63e 5d67 9abd fa00 23bf
00000320: 4c93 cf3e 1957 fb3e 6255 11bf 7f1d 033f
00000330: 7bf6 0e3e 4e07 35bf 3df9 f3be 2925 b6bd
00000340: f784 a63e 71f7 c3be c2a1 4fbd 8c77 fcbd
00000350: ef28 843e 3261 5b3e fea2 0abf d5d1 3b3e
00000360: 99da f7bc 599b 233f 707a 7d3e 8fd8 c53e
00000370: 0db0 07bf 9150 cfbd bea2 1a3f 1c0e 2d3f
00000380: d4ed 583e 59e5 06bf 87c7 a03e 8d03 a53e
00000390: 81b4 c63e 1805 333e 1ba4 d03e 1536 b93e
000003a0: 457d 083f 3f78 1fbf 7302 f83e 84ba 263e
000003b0: 5a8d c6bc 9034 cb3e 0a32 16bf 8688 78be
000003c0: 5ee4 ea3e 14e9 adbe e572 f13e a34b de3e
000003d0: 7281 803e 61fb 7b3e 0be8 1c3e 332a 76be
000003e0: 3f36 1dbf dba9 7dbd 72ac 073f 20b4 19bf
000003f0: 8c48 d2be fdfa 08bf fcb6 4a3d c95b 1bbf

net.2.weight f4 [1, 256]
0.030622406 -0.030391155 -0.029898781 0.06992721 -0.00022006838 0.0020968085 0.06940676 -0.057140697
-0.034482893 -0.053531952 -0.08000423 0.0348354 -0.006264078 0.02797145 -0.022198763 0.006828246
-0.005357247 0.06025249 -0.021833777 -0.0058311005 -0.07314201 -0.059627187 0.012592292 0.083091214
0.019961305 0.068249114 0.04818865 -0.018523166 0.025901666 -0.060610663 -0.09492223 0.049970478
0.0456923 -0.00708569 0.086704075 -0.00025660428 -0.035367478 0.04218914 0.016828436 0.08409579
0.0860646 0.061178967 -0.017844781 -0.06734181 -0.004401232 0.02381759 -0.07359609 -0.01621416
-0.075011216 -0.02631286 0.054913696 -0.055840857 0.015517043 0.014576544 0.07887331 -0.008208937
0.0037491755 -0.008281501 -0.04977372 0.07763756 -0.0045744977 0.04328902 0.07630535 0.0248881
0.049123336 0.02801381 -0.020787075 0.026387185 0.07495406 -0.018992135 -0.009316714 -0.07884512
-0.01797758 0.026854964 -0.005109602 -0.0069739767 0.014408352 -0.008593643 -0.08762784 0.019785674
-0.015056684 -0.00014538478 -0.03354937 0.031430844 0.0048110774 -0.014116788 -0.0048581865 0.024909576
-0.030826151 -0.032467335 -0.029141596 -0.02262032 0.006428796 -0.07566865 -0.048958 0.008857269
0.02271916 -0.08767198 0.08806029 0.039811548 0.0027170563 0.01894734 -0.08058747 -0.039207034
-0.00018546607 -0.06710261 -0.024390295 0.07488944 0.029104361 -0.015161591 0.06592511 0.023688454
-0.046692878 0.010152164 0.05193884 0.0026025467 -0.071207225 0.065946 0.027556377 -0.07749582
-0.0021031327 0.036463235 0.024097564 0.04090477 -0.03953469 -0.0019683752 -0.0349828 0.019237809
0.04600059 0.01011781 -0.02429072 -0.023408944 0.053687543 0.07222674 0.07331639 0.024804557
0.026767757 0.005616188 -0.03468466 -0.012780282 -0.036285363 -0.028551899 0.001987577 -0.007732953
-0.01136139 0.0065352884 -0.06197908 0.018380048 0.00641134 0.028091501 0.001225206 0.06921362
0.054545857 0.054855503 -0.060403712 0.07939144 -0.0020575342 -0.0065806517 -0.029626573 0.05580989
0.053834744 -0.014910699 0.026546896 -0.028381648 0.025853269 0.02339216 -0.07604227 0.06735058
-0.070241526 -0.035746038 -0.015690513 0.027592972 0.029009383 -0.06277792 -0.033075903 0.07877148
0.0148046315 -0.03484326 0.011316572 0.008906798 0.0027676264 -0.041563936 0.0011920569 0.07312012
-0.038702205 0.021558153 0.011119521 -0.04025615 0.08973073 -0.07675288 -0.076636866 0.027670054
-0.04846338 -0.003963455 -0.06833339 -0.04923689 0.025765384 -0.020084878 -0.08741644 0.002301691
-0.05363893 0.069961905 0.024855852 -0.09467194 -0.057574715 0.0028963997 -0.02959724 -0.032586347
0.034324106 -0.0700728 0.019641181 -0.041689 -0.07098075 -0.07036061 -0.0046948073 -0.07266488
0.08110711 0.009082043 -0.008748575 -0.009302218 0.047087993 -0.029287975 -0.06250145 -0.00059254735
0.02809887 -0.028471174 0.08322465 0.07760314 -0.011104852 0.06904805 0.022916913 -0.02241043
0.08262389 0.08074054 -0.010124146 0.039332267 0.035987847 0.01435288 0.022659177 0.008491127
0.069626905 -0.063133664 -0.05455804 0.016757134 -0.069666095 -0.09071554 -0.09500929 0.017840529
0.014345372 0.068887696 0.0799758 -0.049555458 0.00771567 0.053366303 0.07542151 -0.06154841
00000000: d7db fa3c dff6 f8bc 4aee f4bc ff35 8f3d
00000010: 28c2 66b9 9c6a 093b 2225 8e3d 5d0c 6abd
00000020: ef3d 0dbd 5244 5bbd 42d9 a3bd 90af 0e3d
00000030: e542 cdbb 6224 e53c 2eda b5bc 7bbf df3b
00000040: d88b afbb 51cb 763d c0dc b2bc d112 bfbb
00000050: 7acb 95bd a33b 74bd e74f 4e3c ba2b aa3d
00000060: e485 a33c 31c6 8b3d 7661 453d e5bd 97bc
00000070: bb2f d43c e342 78bd 9666 c2bd d8ad 4c3d
00000080: d927 3b3d 132f e8bb e891 b13d d888 86b9
00000090: 7ddd 10bd 85ce 2c3d cadb 893c 6a3a ac3d
000000a0: a342 b03d cc96 7a3d 382f 92bc 81ea 89bd
000000b0: 3638 90bb 1b1d c33c 8cb9 96bd 8fd3 84bc
000000c0: 7b9f 99bd 118e d7bc 2fed 603d 62b9 64bd
000000d0: 323b 7e3c 75d2 6e3c 5488 a13d c77e 06bc
000000e0: bab4 753b 22af 07bc 87df 4bbd 7100 9f3d
000000f0: abe5 95bb d44f 313d fb45 9c3d 21e2 cb3c
00000100: 8d35 493d 387d e53c a849 aabc f029 d83c
00000110: 8481 993d 6595 9bbc 21a5 18bc 8d79 a1bd
00000120: b845 93bc f1fe db3c 736e a7bb f585 e4bb
00000130: 0211 6c3c 5acc 0cbc 3a76 b3bd 9115 a23c
00000140: 4fb0 76bc 6e72 18b9 106b 09bd a1bd 003d
00000150: 3ea6 9d3b 1a4a 67bc 6c31 9fbb 2b0f cc3c
00000160: 2087 fcbc 78fc 04bd 5bba eebc 404e b9bc
00000170: a6a8 d23b 2af8 9abd 2f88 48bd 141e 113c
00000180: 881d ba3c 5e8d b3bd f458 b43d 6f11 233d
00000190: a410 323b 7437 9b3c 0b0b a5bd 8e97 20bd
000001a0: ab79 42b9 186d 89bd 28ce c7bc a25f 993d
000001b0: 456c ee3c 5268 78bc be03 873d 4a0e c23c
000001c0: 0841 3fbd 4355 263c d2bd 543d 7d8f 2a3b
000001d0: 18d5 91bd b20e 873d e9bd e13c 21b6 9ebd
000001e0: b6d4 09bb 795a 153d 4168 c53c c38b 273d
000001f0: 21ef 21bd dbff 00bb 204a 0fbd 9c98 9d3c
00000200: 1d6b 3c3d 2cc5 253c 55fd c6bc 1dc4 bfbc
00000210: 78e7 5b3d 9deb 933d e726 963d ed32 cb3c
00000220: 0e48 db3c 0008 b83b 8111 0ebd 6364 51bc
00000230: f69f 14bd ace5 e9bc 0242 023b b664 fdbb
00000240: 2025 3abc f925 d63b c7dd 7dbd c191 963c
00000250: 3816 d23b 2620 e63c 1797 a03a dfbf 8d3d
00000260: 7a6b 5f3d 2ab0 603d e269 77bd fb97 a23d
00000270: b2d7 06bb 82a2 d7bb 6db3 f2bc e998 643d
00000280: d281 5c3d 014c 74bc e078 d93c a180 e8bc
00000290: 3cca d33c eaa0 bf3c 0dbc 9bbd 1aef 893d
000002a0: cada 8fbd 706a 12bd 6489 80bc a80a e23c
000002b0: 16a5 ed3c b691 80bd 997a 07bd f152 a13d
000002c0: 208f 723c ceb7 0ebd 2569 393c d2ed 113c
000002d0: 1161 353b f23e 2abd cb3e 9c3a 00c0 953d
000002e0: 3486 1ebd b99a b03c a72e 363c a2e3 24bd
000002f0: bfc4 b73d 9d30 9dbd caf3 9cbd 4fac e23c
00000300: 8a81 46bd dfdf 81bb 60f2 8bbd 9fac 49bd
00000310: ed11 d33c 0b89 a4bc 6407 b3bd f8d7 163b
00000320: 7fb4 5bbd 3048 8f3d 809e cb3c 5de3 c1bd
00000330: 77d3 6bbd 86d1 3d3b e975 f2bc 4379 05bd
00000340: 6f97 0c3d 5482 8fbd 8be6 a03c 16c2 2abd
00000350: 5b5e 91bd 3919 90bd e6d6 99bb 53d1 94bd
00000360: 7c1b a63d d9cc 143c 2f56 0fbc 5568 18bc
00000370: 57df 403d 56ed efbc c300 80bd 2e55 1bba
00000380: 9a2f e63c 613c e9bc af71 aa3d 65ee 9e3d
00000390: 20f1 35bc 1069 8d3d 40bc bb3c 1496 b7bc
000003a0: b736 a93d 4c5b a53d bfdf 25bc df1a 213d
000003b0: fe67 133d 5828 6b3c bd9f b93c 5e1e 0b3c
000003c0: 8d98 8e3d 394c 81bd 4078 5fbd 4246 893c
000003d0: 19ad 8ebd 12c9 b9bd 3b94 c2bd 4d26 923c
000003e0: da08 6b3c fe14 8d3d 5aca a33d aafa 4abd
000003f0: bbd3 fc3b a096 5a3d 9876 9a3d 301a 7cbd
