ANN_MLP/model.pt (torch, 11015 bytes, 13 tensors)

layer1.weight f4 [32, 4]
0	0xbe99e9aa	-0.30061084
1	0x3b0766ca	0.0020660632
2	0x3e5e1995	0.21689446
3	0x3e01ce03	0.12676243
4	0x3ed71be4	0.42013466
5	0xbae2adb0	-0.0017294195
6	0xbed5e84c	-0.4177879
7	0xbe47ed10	-0.19524026
8	0x3eef014d	0.4668068
9	0x3e921ca5	0.2853748
10	0xbed12d54	-0.40854895
11	0x3dbaf1c1	0.09128142
12	0x392cc4a3	0.00016476451
13	0x3edaf005	0.42761245
14	0xbef185fd	-0.47172537
15	0x3da0437a	0.0782537
16	0xbd0a823f	-0.03381562
17	0xbd0f10fc	-0.034928307
18	0xbedf8de3	-0.43662938
19	0xbef35c08	-0.47531152
20	0xbe020a17	-0.12699161
21	0x3ea57345	0.32314506
22	0xbe2bf20f	-0.16791557
23	0x3df15b9d	0.11785052
24	0x3edac5dc	0.4272908
25	0x3ea15e7a	0.31517392
26	0x3ee1df34	0.44115603
27	0x3d05a9aa	0.032632507
28	0x3dddc2ee	0.108281955
29	0x3e3360d3	0.17517404
30	0x3dbc6de4	0.092006475
31	0xbed312ae	-0.4122519
32	0x3e7d250a	0.2472116
33	0xbedca314	-0.4309317
34	0xbe3d9c33	-0.18516617
35	0xbe3ce6b3	-0.1844738
36	0xbd422dff	-0.047407147
37	0xbea05a5c	-0.3131894
38	0x3e9a7b53	0.30172214
39	0x3f0539a1	0.5204106
40	0x3e6ed208	0.23322308
41	0x3ebb4164	0.36573327
42	0x3dff2664	0.12458494
43	0xbea20c8a	-0.31650192
44	0xbac71ff9	-0.0015192024
45	0x3ebda584	0.3704034
46	0x3e93042a	0.28714114
47	0xbd3b9027	-0.04579177
48	0xbe1c2a8c	-0.15250605
49	0x3eab6032	0.3347183
50	0x3eab8886	0.33502597
51	0x3ee51476	0.44742173
52	0xbf070c4c	-0.5275314
53	0xbec4881a	-0.38385087
54	0xbeef8b45	-0.46785942
55	0x3eabe092	0.3356977
56	0x3ee19cff	0.4406509
57	0x3e4342aa	0.19068399
58	0x3eae1bac	0.34005487
59	0xbed575ad	-0.41691342
60	0xbe89764f	-0.26848075
61	0xbec7dc68	-0.39035344
62	0x3ca1879e	0.019717988
63	0x3e41c388	0.18922246
64	0x3ea01c4d	0.31271592
65	0x3ece6c46	0.4031698
66	0x3d09dcce	0.03365784
67	0xbd84f5d3	-0.064922
68	0x3e599540	0.2124834
69	0xbed632c3	-0.41835603
70	0x3e7bb475	0.24580558
71	0xbdeb6248	-0.11493355
72	0x3ec42fbe	0.38317674
73	0x3e845a7e	0.2585029
74	0xbd35db8e	-0.044398837
75	0x3d749a68	0.059717566
76	0xbe5a6326	-0.21326885
77	0xbeb9c40c	-0.36282384
78	0x3e1e8619	0.15480842
79	0xbedd1a69	-0.43184212
80	0x3e135ece	0.14391634
81	0xbe55be1b	-0.208733
82	0x3f0137bf	0.50475687
83	0x3edbe122	0.429452
84	0x3eed4c17	0.46347114
85	0xbd25ee89	-0.040510688
86	0xbdb8c99b	-0.09022828
87	0xbea35203	-0.31898507
88	0xbee5b11b	-0.44861683
89	0x3e42e0b2	0.19031027
90	0x3eb7ee71	0.35924104
91	0x3d811334	0.06302491
92	0x3d1c7c69	0.038204584
93	0x3d38b1e7	0.045091536
94	0xbe1ed90d	-0.15512486
95	0x3e59dbac	0.21275204
96	0xbe671ae6	-0.22568855
97	0xbedcb314	-0.43105376
98	0x3eaf33fa	0.34219342
99	0x3c6a42a4	0.014298115
100	0xbe4f8748	-0.2026645
101	0xbeeb73e7	-0.45986864
102	0xbeb74eae	-0.35802215
103	0x3ecdf3eb	0.40225157
104	0x3d149106	0.036271118
105	0x3e9a3d16	0.3012473
106	0xbeadf69d	-0.33977214
107	0xbd882218	-0.06647128
108	0x3db5d591	0.08878625
109	0x3e60544e	0.2190716
110	0xbe30de25	-0.17272241
111	0x3e25dd48	0.16197693
112	0x3ea2757c	0.31730258
113	0xbef53dc7	-0.47898695
114	0xbe02c2d7	-0.12769638
115	0xbea4fc42	-0.32223707
116	0xbe75ba5c	-0.23996872
117	0xbed63e8f	-0.41844603
118	0x3ef1e52c	0.47245157
119	0x3d5f8415	0.054569323
120	0x3ed3e40c	0.41384923
121	0x3e8ddf1e	0.27709287
122	0x3e0b9f63	0.1363502
123	0xbdf6e731	-0.12055815
124	0x3e3454c9	0.17610468
125	0x3ecaaa94	0.39583266
126	0x3d4bd06c	0.049759313
127	0x3efddda9	0.49583176

layer1.bias f4 [32]
0	0x3e3f53a1	0.18684246
1	0xbee2c06e	-0.44287437
2	0xbd1a3550	-0.0376485
3	0x3dd42d5a	0.103602126
4	0xbd1f04d6	-0.03882297
5	0xbe879e5f	-0.26488015
6	0x3ec79f2c	0.38988626
7	0xbeedb2b6	-0.46425408
8	0xbe8242cd	-0.2544159
9	0x3ef8586f	0.4850497
10	0x3ef00798	0.46880794
11	0xbe5898bb	-0.21152012
12	0xbe9475cf	-0.2899613
13	0x3eb03a8d	0.3441967
14	0xbec9f3d4	-0.3944384
15	0x3ea18515	0.31546846
16	0xbea9ab9e	-0.33138746
17	0x3e390cc3	0.18071274
18	0xbc6a01cd	-0.014282656
19	0xbecb2eb2	-0.39684063
20	0x3e913aac	0.28365076
21	0x3eb9923c	0.3624438
22	0xbd4dea56	-0.05027231
23	0x3e8b43ae	0.27200073
24	0xbe63f9da	-0.2226328
25	0x3e90e601	0.2830048
26	0x3e2b28d3	0.16714792
27	0xbe696e7b	-0.22796051
28	0xbe3c6886	-0.18399248
29	0xbed4379c	-0.41448677
30	0x3eef0eb5	0.46690908
31	0xbccc8f2f	-0.024970619

bn1.weight f4 [32]
0	0x3f79bb7c	0.97551703
1	0x3f76c36b	0.96391934
2	0x3f82884e	1.0197847
3	0x3f79d109	0.9758459
4	0x3f784850	0.9698534
5	0x3f76b291	0.9636622
6	0x3f828d76	1.019942
7	0x3f788566	0.9707855
8	0x3f830d4e	1.0238435
9	0x3f832b50	1.0247593
10	0x3f7e8999	0.9942871
11	0x3f82b901	1.0212709
12	0x3f7b3e73	0.98142165
13	0x3f841d2d	1.0321404
14	0x3f8061d7	1.0029858
15	0x3f7c80de	0.98634136
16	0x3f79c3c3	0.97564334
17	0x3f81aea4	1.0131421
18	0x3f82d7e0	1.022213
19	0x3f884e1e	1.064884
20	0x3f7b09aa	0.9806162
21	0x3f78a850	0.97131824
22	0x3f78faf2	0.9725791
23	0x3f82956b	1.0201849
24	0x3f810771	1.0080396
25	0x3f8347a6	1.025624
26	0x3f83e09d	1.0302922
27	0x3f794063	0.9736387
28	0x3f816798	1.0109739
29	0x3f7fee5e	0.99973094
30	0x3f7c0582	0.98445904
31	0x3f814954	1.0100503

bn1.bias f4 [32]
0	0xbcb4e022	-0.022079531
1	0xbc8c8997	-0.017155452
2	0x3d3d96c9	0.046286378
3	0xbd10f364	-0.035388365
4	0xbcc0c789	-0.023532646
5	0x3c9528a2	0.018207852
6	0x3d080e13	0.033216547
7	0xbd0e93a3	-0.034808766
8	0x3d22aff2	0.039718576
9	0x3d08e89c	0.03342496
10	0xbc072bea	-0.008250216
11	0x3cc5b85d	0.024135763
12	0xbc976cdf	-0.018484531
13	0x3ce3cfff	0.027809141
14	0x3cc1d1a4	0.023659535
15	0x3b7c41f1	0.0038491453
16	0xbcb29683	-0.021800285
17	0x3d0a3aa1	0.03374732
18	0x3d078d14	0.033093527
19	0x3d1e29a5	0.038613934
20	0xbcb87e80	-0.022521257
21	0xbc8a14ec	-0.01685568
22	0xbd18fa3e	-0.037348025
23	0x3d3aabee	0.04557412
24	0x3c9570b5	0.01824222
25	0x3cd2114d	0.025643015
26	0xbb933c9d	-0.0044933097
27	0xbcbeb19d	-0.023278052
28	0x3cf13736	0.029445272
29	0xbcc1f9de	-0.023678716
30	0xbc483c0a	-0.012221346
31	0x3d05d308	0.03267196

bn1.running_mean f4 [32]
0	0x3e3f5c01	0.1868744
1	0xbee2db83	-0.443081
2	0xbd19c5b8	-0.037542075
3	0x3dd43700	0.10362053
4	0xbd1f048c	-0.038822696
5	0xbe87b7fe	-0.26507562
6	0x3ec79e59	0.38987997
7	0xbeedb4fd	-0.46427146
8	0xbe8239da	-0.25434762
9	0x3ef85655	0.48503366
10	0x3ef00b94	0.46883833
11	0xbe588722	-0.21145299
12	0xbe947574	-0.2899586
13	0x3eb03eab	0.34422812
14	0xbec9ec95	-0.3943831
15	0x3ea18249	0.31544712
16	0xbea9a9db	-0.33137402
17	0x3e39075f	0.18069218
18	0xbc68fb5b	-0.014220084
19	0xbecb0892	-0.39654976
20	0x3e913c48	0.28366303
21	0x3eb99fbc	0.3625468
22	0xbd4e02a0	-0.050295472
23	0x3e8bafbe	0.27282518
24	0xbe63f647	-0.22261916
25	0x3e90e716	0.28301305
26	0x3e2b258f	0.16713546
27	0xbe697c44	-0.2280131
28	0xbe3c6421	-0.18397571
29	0xbed438b9	-0.41449526
30	0x3eef1665	0.46696773
31	0xbccc2209	-0.024918573

bn1.running_var f4 [32]
0	0x3d57bad9	0.052668426
1	0x3e1f1eaf	0.15539049
2	0x3e362955	0.17789204
3	0x3eb35ce4	0.35031807
4	0x3f4e3d50	0.80562305
5	0x3e12f95f	0.1435294
6	0x3f4d8b0c	0.80290294
7	0x3dee4be1	0.116355665
8	0x3e7c05da	0.24611607
9	0x3f2aec62	0.6676694
10	0x3e413e0c	0.18871325
11	0x3e4c10d3	0.19928293
12	0x3f0878d1	0.5330935
13	0x3f24b5bb	0.643398
14	0x3e8f99ba	0.28046972
15	0x3e4612d9	0.19343127
16	0x3e806f49	0.25084904
17	0x3e97ca7e	0.29646677
18	0x3e5e3103	0.21698384
19	0x3eb23b20	0.34810734
20	0x3f865ef7	1.0497731
21	0x3e00a5a5	0.12563188
22	0x3e03a2c0	0.12855053
23	0x3c9cf1f0	0.019158334
24	0x3e77c98c	0.24197978
25	0x3e9e9cec	0.30979097
26	0x3e68e582	0.227438
27	0x3d792063	0.060821902
28	0x3ea8706f	0.3289828
29	0x3ea09fcb	0.31371912
30	0x3e8d4949	0.27594975
31	0x3f1992dd	0.5998972

hidden1.weight f4 [32, 32]
0	0x3d007256	0.03135904
1	0xbd7602c2	-0.060061224
2	0xbe41e30d	-0.18934269
3	0xbd4d18b3	-0.050072383
4	0xbdfb7973	-0.12279024
5	0xbd209eba	-0.039213873
6	0xbd85702f	-0.06515538
7	0x3ca6ce07	0.020361913
8	0xbdac7313	-0.08420386
9	0x3e026aab	0.12736003
10	0x3e186b32	0.14884642
11	0x3de9490a	0.11390884
12	0xbd0656e0	-0.032797694
13	0xbb540761	-0.003235303
14	0xbe21a9db	-0.15787451
15	0x3db57117	0.08859461
16	0xbdfbe885	-0.12300209
17	0xbe381625	-0.17977197
18	0xbdfba28e	-0.12286864
19	0xbda0ff7e	-0.07861231
20	0x3d960a61	0.07326198
21	0xbd94bde6	-0.07262783
22	0x3db81a05	0.08989338
23	0xbddd80c9	-0.108155794
24	0xbd9ca101	-0.076478966
25	0x3dd9c548	0.106333315
26	0xbd79ca29	-0.06098381
27	0xbdfd2d37	-0.1236214
28	0xbd3abfe2	-0.04559315
29	0xbd5e88c6	-0.054329656
30	0x3e01f059	0.12689342
31	0xbe2b3868	-0.16720736
32	0xbde0dba2	-0.10979392
33	0x3db79b93	0.0896522
34	0x3e0aaf88	0.13543522
35	0x3e3a01c6	0.18164739
36	0x3e004fc1	0.12530424
37	0xbe0f4c0f	-0.13993858
38	0xbd2ffd77	-0.042966332
39	0xbcfe6f81	-0.031059029
40	0xbe3931fb	-0.18085472
41	0xbd904c24	-0.07045773
42	0xbc7a900e	-0.015293134
43	0x3d7efa2b	0.062250298
44	0xbb69bf89	-0.0035667142
45	0x3e4f8260	0.20264578
46	0x3e137aac	0.14402264
47	0x3e0af31f	0.13569306
48	0x3dde423a	0.108524755
49	0x3d970ae8	0.07375127
50	0xbe078ebf	-0.13238047
51	0x3e155939	0.14584817
52	0x3dc85450	0.09781706
53	0xbe37b973	-0.17941837
54	0xbd88de54	-0.06683031
55	0xbe174f5d	-0.14776368
56	0x3e31d9d3	0.1736825
57	0xbda522a2	-0.08063246
58	0x3cc86b2c	0.024465166
59	0xbdf551ad	-0.11978469
60	0x3ba01868	0.004885722
61	0xbde54652	-0.11195053
62	0xbd11e131	-0.03561515
63	0xbdf5cacd	-0.12001572
64	0xbc306d9e	-0.010768322
65	0x3d2bb373	0.041919183
66	0xbd0f6637	-0.03500959
67	0xbe044cc8	-0.12919915
68	0xbd34d8f8	-0.04415223
69	0x3d47e7e4	0.048805133
70	0xbd8af76f	-0.067854755
71	0x3dd3ba92	0.1033832
72	0xbe1d64ea	-0.15370527
73	0x3d14865c	0.036260948
74	0x3e32c948	0.17459595
75	0x3e335158	0.17511499
76	0xbd9efaa6	-0.07762651
77	0xbdf2728d	-0.11838255
78	0x3e022b72	0.12711886
79	0x3d4a6114	0.049408987
80	0xbe03e803	-0.12881474
81	0xbd8eaa2c	-0.069660515
82	0x3e1a0e77	0.1504458
83	0xbdf22d23	-0.118250154
84	0x3e1901cf	0.14942096
85	0xbcefca38	-0.02927123
86	0xbe04bc2f	-0.12962411
87	0xbd996b45	-0.07491163
88	0x3db836af	0.08994805
89	0xbe1cac54	-0.15300113
90	0x3d9fca56	0.078022644
91	0x3e0b8988	0.13626683
92	0x3dfc2b87	0.1231299
93	0xbe2eed57	-0.17082725
94	0x3e19f360	0.15034246
95	0xbc1f8a5b	-0.009737576
96	0x3e44bb2e	0.19212028
97	0x3c6bfe11	0.014403836
98	0xbe3ad167	-0.18243943
99	0x3de4586e	0.11149679
100	0x3d516651	0.051122967
101	0x3be85f48	0.0070914365
102	0xbc0589e2	-0.00815055
103	0x3dec8fc4	0.115508586
104	0xbd6b2b16	-0.057414137
105	0x3e251c3f	0.16124056
106	0x3e0fb5ba	0.14034167
107	0x3d813ad1	0.063100465
108	0xbe032405	-0.12806709
109	0xbc9e635b	-0.019334486
110	0x3e0fd015	0.14044221
111	0x3ded7e61	0.115963705
112	0xbe099211	-0.13434626
113	0x3d6a7e81	0.05724955
114	0x3cddb8ad	0.0270656
115	0x3e097068	0.13421786
116	0x3d1af0ca	0.03782729
117	0x3e00e07f	0.12585638
118	0x3da188af	0.078873985
119	0x3e1f56f9	0.15560521
120	0x3dccca70	0.099995494
121	0x3e252751	0.1612828
122	0xbe336ff4	-0.17523175
123	0xba94a00a	-0.0011339199
124	0xbe346e71	-0.17620255
125	0x3e3f5888	0.18686116
126	0xbde2de1e	-0.11077522
127	0x3cba5282	0.02274442
128	0x3e17fde0	0.1484294
129	0xbe10692e	-0.14102623
130	0xbd6edca4	-0.058315888
131	0xbde65d22	-0.112482324
132	0x3c832e80	0.016013384
133	0xbd01e20e	-0.031709723
134	0x3e3076b0	0.17232776
135	0xbc9bd403	-0.019021994
136	0x3ad8e9af	0.0016549135
137	0xbdc23f06	-0.09484677
138	0xbe2d973b	-0.16952221
139	0xbcb81f4c	-0.022475861
140	0xbd9c1d74	-0.07622805
141	0xbe142794	-0.14468223
142	0x3d627d43	0.05529524
143	0xbdfea742	-0.12434246
144	0xbc9e3ea2	-0.019316975
145	0x3dae45f3	0.085094355
146	0x3df02fca	0.11727865
147	0x3ca0bfce	0.01962271
148	0xbdf624cf	-0.120187394
149	0x3dfad701	0.1224804
150	0x3da66db9	0.08126397
151	0x3e0659f9	0.1312026
152	0xbe4a34bd	-0.1974668
153	0xbca4ddf8	-0.020125374
154	0x3d765bb2	0.06014604
155	0x3c712805	0.014719014
156	0xbdc1c379	-0.094611116
157	0x3bacda02	0.005275012
158	0x3d506a64	0.050882712
159	0xbd2195c5	-0.039449472
160	0xbdcc1d2f	-0.09966504
161	0x3d988e4e	0.074490175
162	0x3e28069b	0.1640877
163	0x3dd5cb42	0.10439159
164	0xbd6309a0	-0.0554291
165	0xbe603f92	-0.2189925
166	0x3cc9d8ab	0.024639448
167	0xbcbb6513	-0.022875344
168	0xbd896f65	-0.067107
169	0x3e3c7357	0.18403374
170	0x3cb96ad2	0.022633944
171	0x3dc21067	0.09475785
172	0xbc7405ee	-0.014893992
173	0x3d3b4279	0.04571769
174	0x3d064477	0.032780137
175	0xbd992917	-0.074785404
176	0x3d8a3f92	0.06750406
177	0x3da97424	0.08274105
178	0xbd99fccc	-0.0751892
179	0xbd808242	-0.06274845
180	0x3e31e531	0.17372586
181	0x3e018479	0.1264819
182	0xbcf9cb47	-0.030492438
183	0xbbb66b65	-0.0055670016
184	0xbde84c2a	-0.11342652
185	0xbe0ccdf9	-0.13750447
186	0xbe36ce2b	-0.17852084
187	0xbdad86ac	-0.08472952
188	0x3e0e7e41	0.1391535
189	0x3d824aa0	0.0636189
190	0x3dd7b07e	0.1053171
191	0xbc90152a	-0.017588217
192	0xbe2fccda	-0.17167988
193	0x3da321dc	0.079654425
194	0xbdae5c18	-0.08513659
195	0x3cf1be10	0.029509574
196	0x3d6a90cf	0.057267006
197	0x3d984cab	0.07436498
198	0x3df43800	0.11924744
199	0x3dc9eb52	0.09859337
200	0xbe03894f	-0.12845348
201	0x3d8d19b0	0.06889665
202	0x3d95733f	0.07297372
203	0x3db1bc88	0.086785376
204	0xbe23b1d9	-0.15985812
205	0x3e292c46	0.16520795
206	0x3dcad808	0.09904486
207	0xbe086a5f	-0.13321827
208	0x3d58f679	0.05296943
209	0xbe309f82	-0.17248347
210	0x3d89a4e7	0.06720906
211	0x3e03f0f2	0.12884882
212	0x3e13d06f	0.1443498
213	0x3e110526	0.1416212
214	0x3e009e29	0.12560333
215	0x3c861cd2	0.016371164
216	0xbe30b041	-0.17254736
217	0x3dbbf45f	0.091774695
218	0x3e3f1f13	0.18664198
219	0x3da9d03e	0.08291672
220	0xbc4c5c95	-0.012473245
221	0x3d09cafb	0.033640843
222	0xbdd05633	-0.10172691
223	0x3e1d6783	0.15371518
224	0x3dbe8b59	0.09303922
225	0xbdbbbd75	-0.091669954
226	0x3e31092e	0.17288658
227	0x3dc5e034	0.09661904
228	0xbc96bcb3	-0.018400526
229	0xbd82c911	-0.063860066
230	0x3d22d3fe	0.039752953
231	0xbe0e864b	-0.13918416
232	0x3d166372	0.036715932
233	0x3e182af2	0.14860132
234	0xbde8fd63	-0.11376455
235	0xbdf06677	-0.117382936
236	0x3df886d2	0.1213509
237	0x3d8b9b88	0.068167746
238	0x3d45fc5c	0.04833637
239	0x3e143e35	0.14476855
240	0xbdfba423	-0.12287166
241	0x3e3ef7e8	0.18649256
242	0xbe0a376e	-0.13497707
243	0x3d5b1f14	0.053496435
244	0x3ddd34de	0.10801099
245	0x3d9b3d68	0.07580072
246	0x3dc60b51	0.09670127
247	0xbe112b1d	-0.14176603
248	0x3d0bf934	0.034173205
249	0x3e377256	0.1791471
250	0x3d97e90a	0.074174955
251	0xbdfc81a2	-0.12329413
252	0x3d90d563	0.0707195
253	0x3e37ec08	0.17961133
254	0xbdaa4962	-0.08314778
255	0xbae71f8c	-0.0017633303

hidden1.bias f4 [32]
0	0x3e353dba	0.17699328
1	0xbe1ea1c1	-0.15491392
2	0x3e24f20e	0.16107962
3	0x3dba9e72	0.09112252
4	0xbca40356	-0.020021122
5	0x3d5e467a	0.05426643
6	0x3cc5fce3	0.024168437
7	0xbdf445e2	-0.119273916
8	0x3dd12917	0.102129154
9	0x3e279c41	0.163682
10	0x3c910460	0.017702281
11	0xbdb021f5	-0.08600227
12	0x3e18f7d6	0.14938292
13	0xbe2e4daa	-0.17021814
14	0x3e0232b2	0.12714651
15	0xbc1a15b2	-0.009404587
16	0xbc6faa4a	-0.014628002
17	0x3e2b6bb5	0.16740306
18	0x3d906adb	0.07051631
19	0x3da4ae2b	0.080410324
20	0x3ba0695a	0.0048953714
21	0x3e10daf7	0.14146028
22	0x3dc6668e	0.096875295
23	0x3d648718	0.055792898
24	0x3c91b8f0	0.01778838
25	0xbc8517bd	-0.01624667
26	0xbe3a1228	-0.18170989
27	0xbe159289	-0.1460668
28	0xbe01c691	-0.12673403
29	0xbca5671a	-0.020190764
30	0xbe0b8c0d	-0.13627644
31	0x3e0f0588	0.13966954

bn2.weight f4 [32]
0	0x3f7a857c	0.9785993
1	0x3f8447ed	1.033445
2	0x3f7e87f5	0.99426204
3	0x3f803491	1.0016042
4	0x3f818e0b	1.0121473
5	0x3f827006	1.0190437
6	0x3f7ca06e	0.98682296
7	0x3f7fd779	0.9993816
8	0x3f798600	0.9747009
9	0x3f822aa0	1.0169258
10	0x3f84a9a2	1.0364268
11	0x3f84b5a5	1.0367934
12	0x3f84037b	1.0313562
13	0x3f84e629	1.0382739
14	0x3f79576c	0.9739902
15	0x3f8242c6	1.0176628
16	0x3f7bc01d	0.98340017
17	0x3f80e391	1.0069448
18	0x3f843088	1.032731
19	0x3f82d0e3	1.0219997
20	0x3f83aab0	1.0286465
21	0x3f7a727e	0.9783095
22	0x3f7bf225	0.9841636
23	0x3f790ea9	0.97287995
24	0x3f867358	1.050395
25	0x3f822253	1.0166725
26	0x3f81a735	1.0129153
27	0x3f82774d	1.0192658
28	0x3f83fd22	1.0311625
29	0x3f87d487	1.0611733
30	0x3f7d6cc6	0.989941
31	0x3f7bc38c	0.98345256

bn2.bias f4 [32]
0	0xbcc7677b	-0.024341336
1	0x3cdd3568	0.027003005
2	0x3d23e7f1	0.04001612
3	0xbd578d3a	-0.05262492
4	0x3cef4f88	0.029212728
5	0x3d1c12c1	0.038103823
6	0xbc54bea0	-0.012984902
7	0xbc859630	-0.016306967
8	0xbcba9268	-0.02277489
9	0x3cf39d63	0.029738134
10	0x3d107276	0.03526541
11	0x3c86adc2	0.016440276
12	0x3d368341	0.044558767
13	0x3d16c562	0.036809333
14	0xbcbb010d	-0.02282765
15	0x3cf4347c	0.029810183
16	0xbb2d7503	-0.002646745
17	0x3cc1083b	0.023563495
18	0x3d33fae0	0.043940425
19	0x3c846b66	0.016164493
20	0x3d1ae05d	0.037811626
21	0xbc8dd973	-0.017315602
22	0xbcc1fc9d	-0.023680026
23	0xbd12c4f3	-0.035832357
24	0x3d5347e7	0.051582243
25	0x39d09c0d	0.00039789118
26	0x3cf31e5e	0.029677566
27	0x3cdaa384	0.026689298
28	0x3d1b8a2b	0.037973564
29	0x3d7365cd	0.059423257
30	0x3cbb533f	0.022866843
31	0xbcbd6aed	-0.023122275

bn2.running_mean f4 [32]
0	0xbe1575d6	-0.14595732
1	0xbdf3b3ea	-0.1189955
2	0x3e412b9c	0.18864292
3	0x3ed7c510	0.42142534
4	0xbe065b17	-0.13120686
5	0x3df92dd3	0.121669434
6	0x3ea0b33e	0.3138675
7	0x3e0ea827	0.13931333
8	0x3e75a031	0.2398689
9	0x3eb70dfb	0.35752854
10	0x3cfe1777	0.031017048
11	0xbdb729fb	-0.08943554
12	0x3bc012fe	0.005861639
13	0xbe1dd8cc	-0.15414733
14	0x3d23cd8b	0.039990943
15	0x3e8e5a72	0.2780338
16	0x3d7632e8	0.06010714
17	0x3de01f92	0.109435216
18	0x3d91c2ec	0.071172565
19	0xbd2f9e39	-0.042875502
20	0xbc95965f	-0.01826018
21	0x3e2bcdaf	0.16777681
22	0x3dc39e8d	0.095517255
23	0x3e2170b4	0.15765649
24	0x3c999068	0.018745616
25	0xbda37711	-0.079816945
26	0xbe1a189e	-0.15048453
27	0x3c67989a	0.014135504
28	0xbe1ac8b2	-0.15115622
29	0xbe83e652	-0.25761658
30	0xbdebf551	-0.115214
31	0xbd76df14	-0.060271338

bn2.running_var f4 [32]
0	0x3e36997d	0.17831989
1	0x3e21a872	0.15786913
2	0x3e869b32	0.2629028
3	0x3e4d06c5	0.20022114
4	0x3d70c19e	0.058778398
5	0x3e698111	0.22803141
6	0x3e824c73	0.2544895
7	0x3ebb8034	0.3662125
8	0x3e3ac53c	0.18239301
9	0x3e7a8f1b	0.24468653
10	0x3e517373	0.20454197
11	0x3d3ea783	0.04654647
12	0x3ddb1620	0.106975794
13	0x3d2a855a	0.04163108
14	0x3e25a294	0.161753
15	0x3ead0f85	0.33800903
16	0x3d696cfa	0.056988694
17	0x3e20282d	0.15640326
18	0x3d9736c2	0.07383491
19	0x3de50e79	0.11184401
20	0x3dbff949	0.09373719
21	0x3e2f7171	0.17133118
22	0x3d84002d	0.06445346
23	0x3e3565b2	0.17714575
24	0x3dac8f3b	0.084257565
25	0x3cbf351c	0.023340754
26	0x3d4558f5	0.04818054
27	0x3e7ceef5	0.2470053
28	0x3da6f857	0.08152836
29	0x3d6a4a30	0.057199657
30	0x3e0dab66	0.13834915
31	0x3de3fd15	0.11132256

layer2.weight f4 [1, 32]
0	0xbdbd5515	-0.09244744
1	0xbde51ace	-0.11186753
2	0x3e2c260a	0.16811386
3	0x3c210960	0.009828895
4	0x3e36df6c	0.17858666
5	0x3df54e34	0.11977807
6	0xbd247db7	-0.040158954
7	0x3dba2ad2	0.090901986
8	0x3da33550	0.07969153
9	0x3dc31d7c	0.09527108
10	0xbdf28d1a	-0.11843319
11	0xbd4d5453	-0.050129246
12	0x3da8b019	0.08236713
13	0xbe3c71da	-0.18402806
14	0x3def4447	0.11682945
15	0x3dcee4f8	0.10102266
16	0xbe048c6b	-0.1294419
17	0xbe0857c9	-0.13314737
18	0x3dc4d8f7	0.09611695
19	0xbe084d16	-0.13310656
20	0x3d867ba8	0.06566554
21	0x3c30eb3b	0.010798271
22	0xbc838fcb	-0.016059777
23	0xbe0edae3	-0.13950686
24	0x3d4f8172	0.050660558
25	0x3d228d44	0.039685503
26	0xbe013e64	-0.12621456
27	0x3e37d97d	0.17954059
28	0x3deef9a5	0.1166871
29	0x3d157d4a	0.036496438
30	0xbdf08484	-0.11744025
31	0xbde98c16	-0.114036724
