RNN_LSTM_GRU/RNN/rnn_model.pt (torch, 71091 bytes, 6 tensors)

rnn.weight_ih_l0 f4 [128, 1]
000000 fd 64 f6 3d 6f 60 c2 3d 57 c9 9c 3d d4 e8 30 be
       0.12030981 0.094910495 0.0765559 -0.17276317
000010 ae a1 02 3d 6a 17 5b bc 4d 92 5f 3b c4 e0 78 bd
       0.03189247 -0.013372282 0.0034114302 -0.06076123
000020 7d 55 da bd 0e 87 57 3c f3 8a 84 bd ac ee 28 3d
       -0.10660837 0.013154758 -0.06471815 0.04124324
000030 c3 be 24 bd 8c 0b 81 bc 58 50 15 bd c3 e0 8b 3d
       -0.040220987 -0.015752576 -0.036453575 0.06829979
000040 63 4a 09 3d 2c 46 0d be a8 d3 6d 3d 14 c5 e4 bc
       0.033518206 -0.137963 0.05806318 -0.027926005
000050 ce a1 d9 3d 86 e3 94 bd aa 0a 86 3d bf a2 72 3b
       0.10626565 -0.07269959 0.06545003 0.0037023274
000060 dc e6 94 3d ae 09 24 3d 71 af ff bc 9d aa 11 bd
       0.072705954 0.040048294 -0.031211587 -0.0355631
000070 17 f6 e4 bc f0 19 58 3d 50 d1 46 bd e8 24 40 3b
       -0.027949376 0.05275911 -0.04853946 0.0029318873
000080 b5 62 4a bd 19 10 de 3d d8 6c e4 bd c7 89 b3 bc
       -0.04941054 0.10842914 -0.11153573 -0.021916283
000090 05 4e ab bc 20 32 bd bd b5 2c 41 bd 8a f9 07 3e
       -0.020911226 -0.09238076 -0.047161777 0.13278785
0000a0 3e 72 1f be 4f 3d 39 3d b9 1b 7c 3d 7a fe 1d 3d
       -0.15570924 0.045224484 0.061549876 0.038572766
0000b0 d9 d5 f2 bd 35 5d 65 bd 75 cf c6 3c b5 d2 43 bd
       -0.118571945 -0.055997092 0.024268845 -0.047808368
0000c0 18 d9 74 bd 79 21 55 3c b3 46 a0 bd fc 27 b3 bc
       -0.05977735 0.013008469 -0.07825985 -0.021869652
0000d0 96 1c 85 bc 21 99 ca 3d 1e 82 9f 3d 45 4e 0e 3d
       -0.016248982 0.09892488 0.0778849 0.034742612
0000e0 71 d6 c1 bd 76 fa 7b bd ac 62 b3 bd 93 c1 ea 3c
       -0.094647296 -0.061518155 -0.087590545 0.028656757
0000f0 0a be 39 bd 7f 3d af 3d b2 86 43 3c 2d e4 78 3d
       -0.04534725 0.08556651 0.011933969 0.06076448
000100 0c d8 a6 bd 80 d8 fe 3d 54 d1 d3 bd 71 c6 c4 bd
       -0.081466764 0.12443638 -0.103426605 -0.09608162
000110 dd 2e 1d 3e cc 5f 69 bd 83 7f 46 bd 20 79 c1 3c
       0.15349908 -0.056976125 -0.04846145 0.023617327
000120 2a df 27 3c ce 88 ec 3c c2 aa d9 bd 61 a9 39 3d
       0.010246078 0.028873827 -0.106282726 0.045327548
000130 30 14 cd 3c 63 7f 1e bd 41 4a 8a 3b 02 61 bf 3d
       0.02503404 -0.038695704 0.0042202775 0.09344675
000140 44 b0 01 be 1a 10 af bd 2e be 40 bd 01 f0 b7 3b
       -0.12664896 -0.08547993 -0.04705637 0.0056133275
000150 54 4a ee bd 4f 8d f3 3d f5 1a e1 bd 10 c1 a5 3d
       -0.11635271 0.11892187 -0.1099147 0.080934644
000160 64 29 1c 3d 27 67 08 bd 2a 5d cc 3c d2 25 c3 bd
       0.03812541 -0.0333015 0.024946768 -0.09528698
000170 cc 2b 00 bc 6b 7d 22 3d 58 b7 dc bc 37 36 01 3e
       -0.007822942 0.03967039 -0.026942894 0.12618338
000180 a2 fe 94 3d 4e b1 90 3d 21 7f 08 be 90 4e a6 bd
       0.0727513 0.07065068 -0.13329746 -0.08120453
000190 e6 b6 0f 3d 74 ff e6 bd 43 22 ee 3b c6 86 8b bc
       0.035086535 -0.112791926 0.007267268 -0.017032038
0001a0 a7 4a 92 3c bf 61 29 3d b8 1f ac 3d b6 ae b4 bd
       0.017857863 0.041352984 0.08404487 -0.08822386
0001b0 16 c8 0e 3d e3 75 0a 3e 3c 6a 87 bc 92 62 bb bd
       0.034858786 0.13521533 -0.016530149 -0.0914966
0001c0 57 71 ae bd 78 c8 35 bd f1 d6 2e bc 89 fc 98 bb
       -0.085177116 -0.044380635 -0.010671363 -0.0046687764
0001d0 20 33 9d 3d 4d e5 55 bc ab fe b4 bd f8 62 83 3c
       0.07675767 -0.013055158 -0.088376366 0.016038403
0001e0 55 cb cd bd 0f b6 d5 bd 73 38 25 3d 86 b2 82 bd
       -0.10048548 -0.104351155 0.040337037 -0.06381707
0001f0 15 97 f0 3d 92 94 db bd d1 b6 f3 3d 1d 8f c1 3d
       0.117475666 -0.10721697 0.11900104 0.09451125

rnn.weight_hh_l0 f4 [128, 128]
000000 9d 7f 4e 3d fb de d7 3d 72 1e 13 bc 6e 87 7b bd
       0.05041467 0.10540577 -0.008979427 -0.061408453
000010 31 75 3a bd b4 1d c8 3c d9 c2 e3 3d 6a bc 70 bb
       -0.04552192 0.024428226 0.111211486 -0.0036733397
000020 39 58 da bd ee 6a 7b 3d f4 8f 12 be 64 21 6a 3b
       -0.106613584 0.061381273 -0.14312726 0.0035725469
000030 f1 e7 3b bd a2 c1 85 3c 52 35 0b be a6 07 8d 3d
       -0.045875493 0.016327683 -0.13594559 0.068862244
000040 35 12 9b 3d 37 a9 4f bd da 3e 17 3c fa fe 90 bd
       0.07571832 -0.050698485 0.009231294 -0.07079883
000050 11 4b d5 bc 60 0d 77 bd 3d 42 38 3d 4d 9c b3 3d
       -0.026036771 -0.06031549 0.044985045 0.087700464
000060 04 82 78 bc 94 3b 88 3c 08 39 79 bd fd c1 ac bd
       -0.015167717 0.016629972 -0.060845405 -0.08435438
000070 8e 1d b9 bd 7f 9b 96 bc 19 11 eb bd 59 94 e8 bc
       -0.0903884 -0.018384693 -0.114778705 -0.02839105
000080 9d 91 15 bd 5c 70 bd 3d 90 3f db 3c aa 23 bb bd
       -0.03651582 0.092499465 0.026763707 -0.09137662
000090 bd 25 5e bc c3 d3 c8 bb 4a 15 aa 3d d0 76 a0 3d
       -0.013558802 -0.0061287596 0.08304842 0.07835162
0000a0 44 e4 dc 3c 90 32 d2 3d 4d 73 e2 3d bc 0f 72 3c
       0.026964314 0.1026355 0.11057148 0.014774259
0000b0 4d 75 b6 bd 76 27 03 bd 0c 31 3b 3d 1d fd f5 bd
       -0.08909092 -0.032020055 0.04570107 -0.12011168
0000c0 33 27 d9 bb 26 cc 4f ba 75 73 4c 3b b2 88 52 bc
       -0.0066269874 -0.0007926844 0.0031196747 -0.0128499735
0000d0 12 7a 66 3d 8f ee 7a 3d 56 0c 13 bc d7 04 bd 3d
       0.05626876 0.061262663 -0.008975109 0.09229439
0000e0 0f d7 5c bd 3f 50 8b bd b6 26 d7 bd 60 79 81 3d
       -0.053916033 -0.06802415 -0.105054304 0.063219786
0000f0 36 3c 6c 3c 21 29 f0 3c 56 13 2a bd bb 26 e0 3b
       0.014418652 0.029316487 -0.041522346 0.0068405545
000100 2f ee 4e bd e4 45 e7 3c ab ab 71 3c cd b7 6b 3d
       -0.05052012 0.028231569 0.0147504015 0.057548333
000110 cf 93 fe 3d e9 c2 e3 b9 52 1c 19 bd ad e0 cd 3c
       0.12430536 -0.00043442033 -0.037380524 0.025131548
000120 7e 6c d2 3b 42 f1 23 bc ea 6d 1a bd a1 5c e3 3d
       0.0064216247 -0.010006251 -0.03770248 0.11101652
000130 ed f6 be 3d 9e 16 b5 bd 4d 01 bf 3d 68 e0 28 3d
       0.09324441 -0.088422045 0.0932642 0.041229635
000140 5e 63 c4 bc 40 70 a8 bd 16 e8 03 3d bc cd 0b 3d
       -0.023973163 -0.08224535 0.032203756 0.03413175
000150 ad 22 81 bc 0f e2 69 bd 93 77 e6 bb 7b 16 bf 3d
       -0.015763605 -0.057100352 -0.0070332973 0.0933046
000160 54 75 5e 3d c1 9f 87 bd 96 ab cb 3d 07 94 62 bd
       0.05431111 -0.066222675 0.09944837 -0.05531695
000170 82 09 59 3b ac 90 45 3d b2 81 ea bc 96 69 15 bd
       0.003311724 0.048233673 -0.028626297 -0.036477648
000180 30 61 bd bc 1b 56 c0 bc 24 f0 c5 3c 56 15 bf bc
       -0.023117632 -0.023478558 0.02416236 -0.023325603
000190 8f c3 b4 3d d3 d2 e3 3c a9 a8 4e bb c2 e1 3a bc
       0.08826362 0.02781049 -0.0031533635 -0.011406364
0001a0 73 50 32 3d 9b 29 80 3d de 27 60 3d 81 63 dd bd
       0.043533754 0.062579356 0.05472552 -0.108099945
0001b0 41 0f ff 3d 35 f0 7b 3d 18 66 19 be 31 2c 0c be
       0.12454081 0.061508376 -0.14980352 -0.13688733
0001c0 9c 01 60 bd 72 31 d5 bd 29 8e ff bc 2a 0f 0e 3c
       -0.054689035 -0.104098216 -0.031195717 0.008670608
0001d0 65 4c 46 bc f6 00 a7 3c 3e e1 f5 bd 18 bf 09 3c
       -0.012103175 0.0203862 -0.12005852 0.008407377
0001e0 61 d1 d1 3c 28 ba f9 bd 8d 1e e1 3d 6c 71 a1 bd
       0.025612535 -0.121937096 0.10992155 -0.07882962
0001f0 67 a8 80 3d a7 86 eb 3c 58 a3 04 3e 69 0b cb bb
       0.0628212 0.02875073 0.12952936 -0.0061964286
000200 80 6f 1e 3d 87 42 8e 3d f3 8d 9c 3d e6 c4 c5 bd
       0.038680553 0.06946283 0.07644262 -0.09656696
000210 8c 44 87 bd 33 86 38 3d 5e 2a a6 bc 86 8f 1c bd
       -0.06604871 0.045049857 -0.020283874 -0.038222812
000220 82 7e d6 3c ab 0e 07 3e 7c 46 05 be cc 84 d5 bd
       0.02618337 0.13189189 -0.13015169 -0.104257196
000230 d4 ae e9 bc fe 96 10 bd 52 c4 b6 bc 74 1d 4b bd
       -0.028525747 -0.035300247 -0.02231041 -0.049588636
000240 a5 70 70 bd 80 58 e7 3c c8 cc cc 3c 04 a5 24 bd
       -0.058701176 0.028240442 0.024999991 -0.040196434
000250 78 de ce 3d 96 40 0e 3d 87 5a f3 bc 85 45 91 3b
       0.10101026 0.034729563 -0.029706253 0.004433336
000260 56 c6 eb bc 71 f1 fe 3d 19 6f 22 be d2 95 c0 bb
       -0.028781097 0.12448395 -0.15862693 -0.005877235
000270 7d 26 9f bd 38 60 12 bd ee 1c e7 bd 0d 23 cc bc
       -0.07771013 -0.035736293 -0.11284815 -0.024919057
000280 fc 86 92 bd 47 04 df 3d 44 25 d9 bb ef b1 ad bd
       -0.071546525 0.10889488 -0.006626757 -0.08481204
000290 39 91 6a bd e7 ed 7d ba 4a cb a9 3d 84 d7 3e bd
       -0.0572674 -0.00096866343 0.082907274 -0.04659225
0002a0 92 db 7b bd fa a3 cb 3d 54 d0 43 3c 7c f7 8f bd
       -0.061488695 0.099433854 0.011951525 -0.07029626
0002b0 aa 86 93 bd 20 80 dd bd fa 8e 40 3d 10 87 9e bd
       -0.072034195 -0.108154535 0.047011353 -0.07740605
0002c0 37 52 bc bc ff 51 c9 3d 7a ab ec bd 5e e9 0b 3a
       -0.022988422 0.09830093 -0.11556144 0.00053372036
0002d0 6b a0 8c 3d be c7 21 bd 3f 2b c6 3d d5 26 a1 3d
       0.06866535 -0.03949713 0.09676217 0.07868735
0002e0 fb 4f 0f 3d 0c 79 fb bb 6d f1 89 bd 0b b2 d6 3d
       0.034988385 -0.007674342 -0.067355014 0.10483178
0002f0 e2 1d b0 bc 8d a8 bd 3d 66 9c d1 3d 48 c4 ac 3d
       -0.021498624 0.09260664 0.10234909 0.08435875
000300 5f 0e 4a 3b e9 13 f3 3d c9 f8 e8 3a 23 36 f7 bd
       0.003083132 0.11869032 0.0017774339 -0.12070873
000310 ea 01 6a 3c bb 66 80 3d b7 7a a8 bc 1e 29 d4 3d
       0.014282683 0.06269594 -0.020566327 0.10359405
000320 40 a2 ca 3c 6b c9 96 3d 14 02 27 bd e0 7f 8f 3d
       0.02473557 0.07362636 -0.040773466 0.07006812
000330 a5 00 d9 3d ed ca a8 3c cb 06 85 bd d5 95 24 bd
       0.10595826 0.020604575 -0.06495436 -0.040181953
000340 24 7c da bc 66 a3 e7 3c 66 0d a4 bd 22 20 da 3d
       -0.026670523 0.028276157 -0.08010368 0.1065066
000350 70 b4 ed bc 97 11 b9 3d 8c 00 0a bd e8 4b ef 3c
       -0.029016703 0.09036558 -0.033691928 0.029211
000360 bc a6 66 3d bb 18 3a 3c d0 ee 72 3d 66 2b 32 bd
       0.056311354 0.011358435 0.05930978 -0.04349842
000370 17 42 ad 3c 6b 0d 62 3d 35 e0 93 bd 20 12 3e 3d
       0.021149678 0.055188578 -0.072204985 0.046404004
000380 e8 67 1d 3d c8 a5 f6 3d 6b f0 b9 bd e3 b3 c4 bc
       0.03842917 0.12043339 -0.09079059 -0.024011558
000390 8e 24 a4 bb 53 dc 60 3b fa a3 8e 3c 14 c2 69 3c
       -0.0050092405 0.003431101 0.017412174 0.014267463
0003a0 30 42 8e bc b2 a3 0f 3d 8a 25 ca 3d 8d e4 c0 3b
       -0.017365545 0.03506822 0.09870441 0.0058866204
0003b0 34 8a 97 bc 98 af 86 3b db f8 bc bd 17 4a df 3c
       -0.018498518 0.004110288 -0.09227153 0.027257008
0003c0 5e 99 22 bd 92 76 a3 bd 1c 19 cf bc aa c0 dd bd
       -0.039697044 -0.079816 -0.025280528 -0.108277634
0003d0 3c a1 93 3d 72 0a 46 bd 55 f9 24 3c 04 3d a2 bc
       0.072084874 -0.048349805 0.010069211 -0.019804485
0003e0 b3 85 d6 bc 98 7f c1 bd 1c a5 09 3c 85 f3 9d bc
       -0.0261868 -0.09448165 0.008401182 -0.019281158
0003f0 6f a7 c6 bc 6d cf 1a bd f6 ac c6 3d 8e 69 82 3d
       -0.02424976 -0.037795473 0.097009584 0.06367789

rnn.bias_ih_l0 f4 [128]
000000 80 0d 02 3d 79 e5 91 3d 9d 8f 49 3d 3b a0 a7 3d
       0.031751156 0.071238466 0.049209226 0.081848584
000010 2b e3 c8 bc 21 91 ae 3d d9 c0 51 3d ff 97 eb bd
       -0.024522385 0.08523775 0.051209304 -0.115036
000020 00 cc d5 bd 10 1b f7 3d fc f9 0c bc a1 6b b9 bd
       -0.104393005 0.12065709 -0.008604523 -0.09053732
000030 27 ae e9 bc 8d 8c 4d bd 0e 21 ff bb dc 30 c6 bc
       -0.028525425 -0.050182868 -0.007785923 -0.02419322
000040 77 b5 51 3d 7d 7e 46 bd b3 20 0f 3e fd c1 fd 3c
       0.05119845 -0.048460472 0.13977318 0.03097629
000050 f7 b3 d6 3d 34 17 48 bc f4 86 46 b9 36 ee 4e bd
       0.10483544 -0.012212563 -0.00018933025 -0.050520144
000060 c0 45 94 bc de 2c 0f bd 24 b2 94 bd b1 88 e5 bd
       -0.018099666 -0.034954898 -0.0726054 -0.112077124
000070 67 1b 11 bd 17 96 bd bd 1d c1 4c bd b5 54 48 3d
       -0.035426524 -0.09257143 -0.049988855 0.048908908
000080 0a 1b dd 3c 0b 0d 1a 3c e5 5a 9c bd 57 e3 b9 3d
       0.026990432 0.009402524 -0.07634524 0.09076565
000090 b5 bf 3c 3b 0e 68 c8 bd c2 61 46 3d 15 c6 70 3c
       0.002880079 -0.09785472 0.048433073 0.014695664
0000a0 27 a8 db bd 0c b7 d6 3d 6e 89 a7 3d d6 e4 93 bc
       -0.10725432 0.10484132 0.081805095 -0.018053453
0000b0 d3 33 5c 3d 16 77 a6 bd 1e b9 49 3c 5e 42 9f bd
       0.05376036 -0.081281826 0.012312202 -0.077763304
0000c0 d3 0d 88 bd d3 56 6b 3d f9 3a e0 bd 91 71 86 bd
       -0.06643262 0.05745585 -0.10948748 -0.0656463
0000d0 4d a4 69 3d ec 83 7d 3d 55 85 cd 3d 86 87 c4 3d
       0.057041455 0.06189339 0.10035197 0.095961615
0000e0 7d 90 1d 3d 6a e8 21 3b 13 7c 60 bc fd e1 9f 3d
       0.038467873 0.002470518 -0.013701457 0.07806776
0000f0 a0 c7 94 bc ab f9 45 3d 8e ae c1 3d c6 c5 42 3c
       -0.018161595 0.048333805 0.09457122 0.011887973
000100 b4 bc 93 3c 33 e5 cd 3d 66 9f 08 be b4 10 7c 3d
       0.018034317 0.10053482 -0.13342056 0.061539367
000110 a8 1d ca 3d 34 ce b9 bc 35 98 91 bd 9f cb ef 3d
       0.09868938 -0.022681333 -0.07109109 0.117087595
000120 09 4a f1 3b 7b 96 74 3d 5c e1 0c be a2 73 28 3d
       0.007363562 0.05971382 -0.13757843 0.0411259
000130 5f 07 87 3d d6 0e 9a bd 25 5a 36 3d 7b 21 cd 3d
       0.06593203 -0.07522361 0.044519562 0.100161515
000140 e4 cb 9f 3d 7b 53 a3 bd 88 8a 65 bc 78 4c b6 bc
       0.07802561 -0.07974907 -0.014010079 -0.02225326
000150 2d b4 b3 3d 87 8f 46 3d 41 49 d6 bd 61 55 4e bd
       0.087746 0.048476722 -0.10463191 -0.050374392
000160 d5 14 e7 3b c4 0a ea bd 40 53 fe 3c b2 f9 60 bd
       0.007052044 -0.11427835 0.031045556 -0.054925628
000170 de 02 51 bd 2f 30 e7 3c f5 9b 2e bc 30 14 db bb
       -0.051028125 0.028221218 -0.0106573 -0.006685756
000180 04 a8 89 3d 97 67 c7 3d 7d d3 26 bd b4 0a a2 bb
       0.067214996 0.09736555 -0.040729035 -0.0049451236
000190 49 cb 30 3d 2a 1d bf 3c e6 9f bd 3d 9d 85 bf bd
       0.043162618 0.023329336 0.09259014 -0.093516566
0001a0 0d 79 76 3d d6 82 ef 3d 94 17 4e 3d 05 1c 1a bc
       0.060174037 0.11694877 0.050315455 -0.009406094
0001b0 e5 13 b5 3d cb 67 56 3c 76 31 7f 3c 2b 6a a5 bd
       0.08841685 0.01308627 0.015575757 -0.080768906
0001c0 32 45 e1 bd ff 78 80 bd f0 8e 97 3c 49 26 c1 bd
       -0.10999526 -0.06273078 0.018500775 -0.094311304
0001d0 85 0a 15 bd 3a 6a a2 3d 88 7e 3b bc 42 21 f6 3c
       -0.036386985 0.07930417 -0.011443742 0.030045155
0001e0 36 63 14 3c b1 ed 08 3d fe 20 ff 3c cc 7e 32 3d
       0.009056857 0.033429805 0.031143662 0.043577954
0001f0 c1 ad ce bc da 83 89 bc 60 3c c6 3d 61 3c ca 3d
       -0.025229337 -0.016786505 0.09679484 0.098747976

rnn.bias_hh_l0 f4 [128]
000000 b5 78 e5 3d 69 8a a1 3d b9 7a 46 3d 59 f8 a2 3d
       0.11204664 0.07887728 0.04845688 0.07957525
000010 0f e1 7f bc 15 6b fd 3d 6a 84 3d 3b 16 5c 30 bd
       -0.015617623 0.1237394 0.0028918036 -0.04305657
000020 44 be 94 3b 84 cb 25 3c 40 be 11 be 3a dc a6 3c
       0.004539283 0.010119323 -0.14232731 0.020368684
000030 1d 82 85 bd 78 27 0d be 4c 3e e0 bd 82 42 58 bb
       -0.06518958 -0.13784587 -0.10949382 -0.0032998626
000040 57 ed 4a bd 36 7e cb bd e7 a9 4e 3e 68 91 14 3e
       -0.04954275 -0.09936182 0.20182 0.14508593
000050 87 c6 cb 3d c3 d4 3c bd c4 f4 8b bb 6b 7f 12 3d
       0.099499755 -0.046101343 -0.0042711217 0.035766046
000060 08 34 7b 3d a2 e3 da 3d 30 bb 1e be ff eb a4 bd
       0.061328918 0.10687949 -0.15501094 -0.08052825
000070 6b 36 a6 3d 4d 15 43 bd c8 07 02 bd 99 1d 76 bd
       0.08115848 -0.047627736 -0.031745702 -0.06008682
000080 bb f5 9b 3d fb d5 ba 3d f9 ca 19 be bb 85 10 3d
       0.07615229 0.09122845 -0.15018834 0.035283785
000090 6c 64 dc bc bd 4d bc bc ad 6d be 3d bc d0 fc bc
       -0.026903354 -0.022986287 0.09298263 -0.030861251
0000a0 97 73 f9 bc 9b f0 3a bc ca 06 ba 3d a5 64 88 3c
       -0.030450625 -0.011409904 0.09083326 0.016649554
0000b0 cc 25 c8 bd 9e e2 e3 bc 40 6f 1e 3e bc 0f 65 bd
       -0.09772834 -0.02781802 0.15472126 -0.05592321
0000c0 a8 de b7 bd 7b be 27 bd bd 41 ce bd 78 80 0d bd
       -0.08978015 -0.04095314 -0.10071132 -0.034546345
0000d0 59 ea 91 3d 3d d0 dd 3b c0 7b ad 3d 7f 9d 90 3d
       0.071247764 0.0067692087 0.08470869 0.0706129
0000e0 71 b4 c9 3d 49 bb 2e bd 8b 56 32 3b 75 05 95 3d
       0.098488696 -0.042659078 0.0027212228 0.072764315
0000f0 8f e5 8b bd de 57 2e 3d 35 6e 2b 3e ef 9d 0d 3e
       -0.06830894 0.042564265 0.1674126 0.13829778
000100 41 54 8d bd ce 5b 51 3b 82 f9 ca bc fe fe 0f bd
       -0.06900836 0.003194559 -0.024777178 -0.03515529
000110 0f 1d 69 3b 2f d0 1b be ea 62 8a bd f4 78 ed 3c
       0.0035570299 -0.15216134 -0.067571476 0.028988339
000120 d1 da 91 3d 13 07 c0 ba b7 2e f8 bb 35 f1 12 bd
       0.07121814 -0.0014650546 -0.007573928 -0.035874564
000130 95 ca 3e 3c 7c 90 be bd 7f 16 80 3c 25 21 a6 3d
       0.011644979 -0.09304902 0.015635727 0.081117906
000140 bf 96 21 3c fd 0e 96 bc de 4f 33 3c 2d 11 fd 3c
       0.009862601 -0.018317694 0.010944335 0.03089198
000150 47 3d 72 bd 6f 28 58 bd 16 e2 b0 3c 4f df bd 3b
       -0.05914047 -0.052772935 0.021592181 0.0057944427
000160 f6 82 84 3c f7 51 7f bd 01 6c b7 3d d6 c6 a5 bd
       0.016175728 -0.062334027 0.08956147 -0.080945656
000170 6b 4a d9 bd 3f 6c ee bc 9f 8c f1 bd f5 fb d9 3d
       -0.10609897 -0.02910435 -0.117943995 0.1064376
000180 ef 22 3a bd e7 9d 82 3c 79 82 af bc ef ea c2 3d
       -0.04544347 0.015944434 -0.021424519 0.09517466
000190 92 66 51 3b c5 3f 62 3d f6 75 44 3d af db c1 3b
       0.0031952006 0.055236597 0.04796406 0.005916081
0001a0 80 e7 0e bd 11 2c 20 3d f4 9d b6 3d fc ed 49 3b
       -0.034888744 0.039104525 0.08916846 0.0030812016
0001b0 bd b3 0a 3e b2 22 7d bc db 8a cd bb e2 94 1b be
       0.13545127 -0.015450167 -0.0062726564 -0.15193513
0001c0 b0 37 6c bd 3b 01 0b be fe 22 35 3d 61 a3 61 bd
       -0.057670295 -0.13574688 0.044222824 -0.05508745
0001d0 cc 2d d7 3c b1 8a 0b bd 32 ab 78 bd 67 62 e7 3a
       0.026266955 -0.034067813 -0.06071014 0.0017653228
0001e0 3b cc 39 bd 14 de b9 bd 53 da 7a 3d 7c 88 6e 3d
       -0.045360785 -0.09075561 0.061243366 0.05823563
0001f0 b8 4f 88 3d b8 f4 37 3c 39 eb 2b 3d 74 eb 06 bc
       0.0665583 0.011227779 0.041972373 -0.008234847

fc.weight f4 [3, 128]
000000 fe 97 92 bc ae fa 98 39 99 3c 44 bd d1 d9 a8 3d
       -0.017894741 0.0002917847 -0.047909353 0.0824467
000010 c5 25 2e bc bb 70 5b 3d 2b 53 b0 3c eb 07 60 bd
       -0.010629122 0.053574305 0.021524033 -0.05469505
000020 5b b6 28 3d 5f f6 fc 3c c2 64 41 bd 74 7f a5 bd
       0.041189533 0.030879198 -0.04721523 -0.080809504
000030 b2 64 ef b9 0f c5 48 bd eb be 4e bc 03 a4 48 3c
       -0.00045660656 -0.049016055 -0.012618761 0.012246135
000040 00 3b 86 3d 2e bd 4c 3d e6 e9 a6 3d 34 cd f3 3c
       0.06554222 0.049985103 0.08150081 0.029760934
000050 dd c5 8e bd b3 e8 4a 3d bf 32 a6 bd d2 7e 86 3c
       -0.06971333 0.049538326 -0.08115148 0.016417895
000060 25 7c 4c 3d e6 62 c4 3b c0 08 35 bd 1c df 5a bd
       0.04992308 0.005993235 -0.044197798 -0.05343543
000070 89 c6 76 3c ca 87 10 bd 0d 3c d8 3c 97 d0 d4 bc
       0.015061983 -0.03528575 0.026395822 -0.02597837
000080 81 31 75 b9 b9 4b 0e bd da e0 f7 bc fb c4 e5 3c
       -0.00023383462 -0.034740184 -0.030258585 0.02804803
000090 9c 2a 85 bd 6d 14 85 bb 65 05 9b 3d 70 5a ae 3c
       -0.06502268 -0.004061273 0.07569388 0.021283358
0000a0 5e 92 95 3d 1c d5 7a 3d 7b 08 cf 3c ac be 30 bc
       0.07303308 0.061238393 0.025272598 -0.010787647
0000b0 f1 cb 94 3d 57 6b 85 bd e9 4d f2 3c 64 3b 2b bd
       0.07265461 -0.06514614 0.029578166 -0.041804686
0000c0 0e 87 84 bd 65 51 0f bc 61 b0 a3 3c 0a 12 24 3c
       -0.06471072 -0.008747433 0.019981565 0.0100140665
0000d0 25 da 01 3d 40 bd 18 bb dd 7c fb 3c ff 87 95 bb
       0.03170218 -0.0023306161 0.030699188 -0.004563331
0000e0 cd 78 26 3d f5 0b 7b 3d fc 98 b8 bc d3 f7 a7 3d
       0.04064255 0.0612907 -0.022533886 0.082015656
0000f0 e7 c7 75 3d e6 3a 87 3d 19 98 2e bd 55 b5 11 bc
       0.060005095 0.06603031 -0.04262552 -0.008893331
000100 13 6a 96 3c 6d fe 24 bc 17 7b 40 bd 87 e9 39 3d
       0.018361127 -0.010070425 -0.046992388 0.045388725
000110 e8 a8 9a bd 6d 43 2c 3d 42 57 55 bc b7 e1 07 3d
       -0.075517476 0.04205649 -0.013021292 0.033174243
000120 49 03 95 3b 67 e3 4d 3c 1a 5c a7 bd 17 d3 53 bd
       0.0045475108 0.012566424 -0.08171864 -0.051714983
000130 12 4a 55 bd c2 c7 b3 bd b4 58 16 bd 67 16 09 bd
       -0.052072592 -0.08778335 -0.036705688 -0.03346863
000140 e5 17 92 3d 7b 30 23 3d 08 64 f9 bb d4 01 9b bd
       0.07133464 0.039841156 -0.0076108016 -0.07568708
000150 3d de 82 3d 89 55 8c bc 52 56 c0 bc 81 e6 96 bd
       0.06390045 -0.01713063 -0.02347866 -0.07368184
000160 c1 65 14 3d e7 97 87 3c 2c 1c c1 bc 03 49 53 3d
       0.036229853 0.016551925 -0.023573004 0.0515833
000170 fc da a9 bd 5b 7e a0 3c bd 37 06 3d c0 7f a3 bd
       -0.08293721 0.019591501 0.032768 -0.07983351
000180 42 de 90 bc 9f 18 3a 3d 13 d8 1a 3d 4b 28 98 3d
       -0.017684106 0.045433637 0.03780372 0.0742956
000190 c8 dd 34 3d 4c 37 78 3d d6 ec 22 3c 68 0a ae bd
       0.04415682 0.06059961 0.009944161 -0.084980786
0001a0 d1 e4 ac 3c 55 69 95 3d 9f d7 53 bd 4a f3 50 3d
       0.021105202 0.07295481 -0.051719304 0.05101327
0001b0 0b d2 99 3d bc a5 67 bd 68 c6 a4 bc 08 31 3c 3c
       0.07510766 -0.05655454 -0.020114139 0.011486299
0001c0 15 f3 08 bd 4c bc 9e 3d 3d ae 5c 3d 66 64 89 bd
       -0.033434946 0.077507585 0.053877104 -0.067086026
0001d0 47 d9 d0 bc 41 b7 e7 3c a5 7a 3a bd 83 d1 8e 3c
       -0.02549423 0.028285624 -0.04552712 0.017433887
0001e0 68 64 8d 3c 44 c9 f2 3b ed 13 be bc 1a fb c9 3c
       0.017259791 0.0074092466 -0.02320286 0.024655867
0001f0 7c 2c 74 bd de 8b db 3a 48 1e 97 bd 9c a0 7d 3d
       -0.059612736 0.0016750058 -0.073788226 0.061920747
000200 c1 96 48 3d 47 cc 7c 3d 8d 51 3c 3d f0 c9 82 bd
       0.048971895 0.06171825 0.04597621 -0.06386173
000210 74 d7 11 bc cf 01 14 3c 13 fd 59 bd c8 dc 5f bc
       -0.008901466 0.009033634 -0.053219866 -0.013663478
000220 8f f9 1c 3d 5a 3a 95 bd 5e 89 ab 3d 35 0d 78 bd
       0.038323935 -0.0728652 0.0837581 -0.06055947
000230 f0 1e 2e bb d3 4e 79 bd 6f 10 f4 3c 2f e3 30 3d
       -0.0026568733 -0.06086619 0.029792992 0.04318541
000240 60 2d 92 3d 61 f2 74 3d 10 b9 9b 3d d8 30 ec 3c
       0.07137561 0.059801463 0.07603657 0.028831884
000250 5c 8f a0 bd 45 be 87 bd da bb 8d bd c7 de d0 3b
       -0.07839844 -0.06628088 -0.069205955 0.0063742134
000260 8b ba 37 3d 48 7f b4 3c 20 25 87 3c 6b 3e 9e bc
       0.044855636 0.022033349 0.016497195 -0.019316873
000270 43 e0 92 3d 86 ab 15 bd 21 97 8f 3d c5 e2 1e bd
       0.07171681 -0.03654053 0.070112474 -0.038790483
000280 06 86 8c bd 91 c1 d3 3c 38 a5 95 bd 8d 5c a9 3d
       -0.068615004 0.025849136 -0.073069036 0.08269606
000290 1a a7 6c bc 63 fb 59 bc e9 2c 93 3d 4e ab 34 bd
       -0.014444137 -0.013304564 0.071863 -0.04410868
0002a0 c1 0c 93 3d 1e 5c 90 3d 7b 4c 81 bd d7 d8 8d 3d
       0.07180167 0.0704882 -0.063134156 0.069261245
0002b0 47 0d 86 3c ee 0f 32 3d 9b 31 9c bb 66 8e 88 bc
       0.016363753 0.043472223 -0.0047666556 -0.016669463
0002c0 3f 60 28 bd c5 79 86 bc 71 dd f1 39 02 ab f1 bc
       -0.041107412 -0.016415486 0.0004613209 -0.029500488
0002d0 09 0d 40 bb 9f d7 19 3d b3 f2 24 3d 05 b3 a4 3d
       -0.0029304645 0.037559148 0.04027052 0.08041958
0002e0 7f e6 a6 bd 2e f7 ab bd e1 84 b1 3d 77 17 3f bd
       -0.081494324 -0.08396755 0.08667923 -0.046653237
0002f0 74 fb a5 3d 6e 61 b1 3d da f7 82 bd 67 6e 0f bb
       0.081046015 0.08661161 -0.0639493 -0.0021885873
000300 93 3b 9e bd be 9d f9 bc 39 16 28 3d 3d ee ad bd
       -0.07726207 -0.030470725 0.04103682 -0.08492706
000310 38 2a 0a bd 59 1c 8f ba c4 67 59 bd d9 c8 be bc
       -0.03373167 -0.0010918482 -0.053077474 -0.023289131
000320 bc 13 a0 bd 24 92 3d bd 88 78 0b bd 71 b5 93 3d
       -0.07816264 -0.04628195 -0.034050494 0.072123416
000330 26 9f 3f 3d 5d ee ac 3d a8 fa 25 bd 51 98 0b bc
       0.046782635 0.08443902 -0.040522248 -0.008520202
000340 55 06 1c bd 82 af 96 3d f6 68 55 bc fd 90 92 3c
       -0.038091976 0.07357694 -0.013025513 0.017891401
000350 22 b7 63 bd d0 5c e3 bc b6 60 a7 bd be 6d 8b 3c
       -0.05559457 -0.027754217 -0.08172743 0.017020103
000360 be e2 9e bd 8e 1d 7a 3d c5 6f 07 3d f7 e1 28 3d
       -0.077580914 0.06106334 0.033065576 0.041231122
000370 77 0d 03 3d 10 78 51 3d 79 2e 16 3d 40 87 68 bd
       0.031995263 0.05113989 0.036665414 -0.05676961
000380 9e 5b 3f bc eb 2e 8d bd b1 57 3c 3b 8c c1 9d bd
       -0.011679558 -0.068937145 0.0028738792 -0.07702932
000390 5c f9 23 bb bb 3e 75 bd 3d 09 57 bd cc ba 90 3c
       -0.0025020456 -0.059874278 -0.052499045 0.017667197
0003a0 7c 98 31 3c 30 e6 ab bc a0 03 f2 3c ec 88 a7 3d
       0.010839578 -0.020983785 0.029542744 0.08180413
0003b0 de 84 42 3d ba e5 bd bb 3f 0c e5 bc 72 e5 73 3d
       0.047489993 -0.005795208 -0.027959941 0.059544988
0003c0 f9 a0 99 bc 48 75 a8 3d ac be 38 3d 88 28 8b 3d
       -0.018753516 0.082254946 0.045103714 0.0679484
0003d0 10 ec 98 bd e5 64 1b bd 76 e3 7e 3d c9 29 aa bd
       -0.074669 -0.037938017 0.062228642 -0.08308751
0003e0 7c 69 23 bd ed 38 6f bd b5 c1 60 3d 83 d0 c5 bc
       -0.03989552 -0.058403898 0.054872233 -0.024147278
0003f0 05 37 6c bc 03 2e a2 bd 45 a1 11 3c e1 3f c3 b9
       -0.014417415 -0.07918932 0.008888547 -0.00037240892

fc.bias f4 [3]
000000 e6 e8 1b bd 27 30 97 3d 94 85 fd bd
       -0.038063906 0.07382231 -0.12378994
